src/visualize/sequence_output/LastFM_BSARec/0layer_4iter.npy (npy, 844928 bytes, 1 tensors)

array f4 [66, 50, 64]
0.91032535 0.547031 -0.8547391 0.7284648 -0.83445585 -0.9295152 -1.1290375 0.351751
0.88589376 -1.2222438 1.9645394 -0.5504905 -1.44979 0.4707637 0.10237472 -0.5865258
-0.99723816 -1.2740935 0.6931224 -0.083055794 -0.055674516 1.465311 0.95209026 -1.2379954
-1.138219 -0.03779231 1.5816061 -1.3056923 0.83306843 0.11213994 -1.0632043 0.70951265
-0.8233988 -1.0319241 0.6610561 -1.4964862 0.89912784 -0.17884447 1.4393003 0.052010316
1.9321929 -0.087337516 -0.979089 1.1307529 -1.153692 -0.6672785 0.5681243 -1.4817629
0.4638799 -0.3642701 0.7998787 0.8221223 1.5235823 -0.81909037 1.0124158 1.1145563
-0.6525811 1.1272826 0.68313986 0.8171322 -1.7454048 0.4423289 -1.9077471 0.71563953
1.1467443 0.71980166 -0.8867753 0.7540038 -1.3544602 -0.8082291 -1.2030247 0.6460262
0.93217695 -1.4233342 1.6717972 -0.4906229 -1.6037294 0.47431454 0.36213756 -0.8053117
-0.8502394 -1.3909035 0.67284817 0.14107664 -0.089749224 1.3622326 0.74707973 -1.3876854
-0.8776265 -0.006660767 1.5217195 -0.6506177 1.0453925 0.17449579 -0.65598774 0.76568705
-1.0732967 -0.7406356 0.50641423 -1.5844175 0.68016094 -0.25457525 1.561895 -0.030352559
2.2632601 -0.24982952 -1.125341 0.95002025 -1.304994 -0.6960745 0.4105189 -1.3818545
0.57347506 -0.16115807 0.9304425 0.967033 1.33848 -0.9346276 1.0986997 0.875502
-0.88151103 0.85117257 0.83002615 0.6519279 -1.5881801 0.46511188 -1.7206804 0.55435115
1.2388997 0.5533443 -0.72071385 0.6190708 -1.0391631 -1.1472986 -1.3221883 0.42433912
1.130615 -1.0500124 1.8532908 -0.37101275 -1.3776222 0.6382987 -0.10327412 -0.53540164
-1.1995099 -1.4299963 0.572453 0.1236092 -0.26798737 1.2628678 0.8300781 -1.2182026
-1.0089027 0.16825718 1.6755941 -1.0784771 0.72326124 0.16699213 -0.5962814 0.97522396
-1.1313726 -0.81207347 0.81802523 -1.75297 0.6960181 -0.32417995 1.6797484 0.39852834
2.001029 -0.16977395 -1.1082377 1.2351868 -1.1252366 -0.636807 0.50783336 -1.6309668
0.45186698 -0.1548705 0.86393785 0.70499796 1.2635156 -0.6374599 0.74728024 0.88812846
-0.94402593 0.95100534 0.8356773 0.5480132 -1.5244021 0.48414716 -1.8590785 0.68984836
1.1740699 0.47115827 -0.64885 0.7260713 -0.9539863 -0.6650376 -1.2767869 0.4421091
0.97524714 -1.2409906 1.8768051 -0.24668226 -1.3769534 0.70121783 0.1602721 -0.83284724
-1.2254242 -1.5774665 0.4049225 0.08445661 -0.19895703 1.3972538 1.0457423 -1.136897
-0.9304182 0.044199135 1.2005198 -1.0382922 0.69898045 0.35249302 -0.9406062 0.8685975
-1.288094 -0.79330885 0.70901805 -1.75549 0.718569 -0.2730058 1.5867063 0.21252464
1.7623856 -0.11702407 -1.0791522 1.1660849 -1.0592898 -0.6680593 0.4973979 -1.4510661
0.59920543 -0.171405 0.9269762 0.69832116 1.7631419 -0.940138 0.83508515 0.8443914
-0.79551727 0.9078394 0.755787 0.7874713 -1.662882 0.56075805 -1.8962891 0.62360686
00000000: 150b 693f 390a 0c3f 2fd0 5abf ab7c 3a3f
00000010: e69e 55bf b5f4 6dbf 4d84 90bf b518 b43e
00000020: efc9 623f 7c72 9cbf 0776 fb3f f2ec 0cbf
00000030: b892 b9bf f107 f13e d6a9 d13d 8e26 16bf
00000040: 004b 7fbf 7f15 a3bf 7870 313f 2819 aabd
00000050: f60a 64bd 508f bb3f 30bc 733f a276 9ebf
00000060: 29b1 91bf 1ccc 1abd 1272 ca3f ed20 a7bf
00000070: f943 553f a0a9 e53d 1417 88bf 9fa2 353f
00000080: 44ca 52bf 1716 84bf f93a 293f dc8c bfbf
00000090: 3e2d 663f 0123 37be fe3a b83f c508 553d
000000a0: 1952 f73f 03de b2bd 94a5 7abf 83bc 903f
000000b0: 2eac 93bf c4d2 2abf 9870 113f 68aa bdbf
000000c0: ab81 ed3e 9c81 babe dac4 4c3f 9b76 523f
000000d0: bf04 c33f e8af 51bf d796 813f c8a9 8e3f
000000e0: 8e0f 27bf cc4a 903f 41e2 2e3f 932f 513f
000000f0: 6d69 dfbf ef78 e23e 0f31 f4bf 2734 373f
00000100: 84c8 923f ec44 383f b503 63bf 6506 413f
00000110: f45e adbf 1ae8 4ebf b7fc 99bf f961 253f
00000120: 26a3 6e3f d12f b6bf 73fd d53f ed32 fbbe
00000130: 0147 cdbf 5bd9 f23e 186a b93e e828 4ebf
00000140: 4aa9 59bf 2009 b2bf c73f 2c3f 6576 103e
00000150: 71ce b7bd a35d ae3f 9e40 3f3f ad9f b1bf
00000160: 21ac 60bf 9042 dabb b4c7 c23f e28e 26bf
00000170: 6ccf 853f 06af 323e d0ee 27bf 1104 443f
00000180: c961 89bf 4b9a 3dbf 5da4 013f 31ce cabf
00000190: 071f 2e3f b057 82be 2dec c73f eea5 f8bc
000001a0: 41d9 1040 4fd3 7fbe 2d0b 90bf 8734 733f
000001b0: 0b0a a7bf f031 32bf 892f d23e 9ce0 b0bf
000001c0: 43cf 123f 9f06 25be 7b31 6e3f 7a8f 773f
000001d0: 5053 ab3f c143 6fbf 31a2 8c3f e620 603f
000001e0: b5aa 61bf 72e6 593f 987c 543f bfe4 263f
000001f0: 7c49 cbbf 2523 ee3e 413f dcbf f5e9 0d3f
00000200: 4494 9e3f f9a7 0d3f b480 38bf 6d7b 1e3f
00000210: 4c03 85bf aeda 92bf 773d a9bf fa42 d93e
00000220: feb7 903f ce66 86bf a238 ed3f 62f5 bdbe
00000230: ed55 b0bf 8b67 233f 6281 d3bd 1510 09bf
00000240: 8a89 99bf 1e0a b7bf 488c 123f d226 fd3d
00000250: a435 89be a7a5 a13f 0080 543f 10ee 9bbf
00000260: b923 81bf 9c4b 2c3e de79 d63f 8a0b 8abf
00000270: a627 393f fcff 2a3e e6a5 18bf 47a8 793f
00000280: d1d0 90bf 0ce4 4fbf 1a6a 513f 5261 e0bf
00000290: 3e2e 323f eafa a5be ff01 d73f e80b cc3e
000002a0: dc10 0040 39d9 2dbe bcda 8dbf 9a1a 9e3f
000002b0: c107 90bf c905 23bf 5e01 023f 85c3 d0bf
000002c0: 1c5b e73e 5f96 1ebe 082b 5d3f bf7a 343f
000002d0: e1ba a13f 9230 23bf c24d 3f3f 635c 633f
000002e0: afab 71bf 1675 733f f3ee 553f 984a 0c3f
000002f0: 9c1f c3bf 23e2 f73e 49f6 edbf e799 303f
00000300: ec47 963f a83b f13e 091b 26bf cfdf 393f
00000310: 7238 74bf e73f 2abf c16d a3bf 205c e23e
00000320: cca9 793f c8d8 9ebf 263b f03f 469a 7cbe
00000330: 0240 b0bf 0383 333f 5f1e 243e 7a35 55bf
00000340: b3da 9cbf 6cea c9bf 0052 cf3e 96f7 ac3d
00000350: 64bb 4bbe 36d9 b23f e2da 853f d785 91bf
00000360: e32f 6ebf 270a 353d a2aa 993f c2e6 84bf
00000370: 62f0 323f f779 b43e 91cb 70bf 685c 5e3f
00000380: 44e0 a4bf 4a16 4bbf 3582 353f e5b3 e0bf
00000390: 23f4 373f 6bc7 8bbe 3119 cb3f 0fa0 593e
000003a0: da95 e13f 51aa efbd a921 8abf 4542 953f
000003b0: cf96 87bf ef05 2bbf f0aa fe3e 89bc b9bf
000003c0: 8765 193f cb84 2fbe 504e 6d3f 2dc5 323f
000003d0: a2ae e13f e2ac 70bf 24c8 553f 092a 583f
000003e0: 05a7 4bbf 2a68 683f 427b 413f b897 493f
000003f0: 51d9 d4bf d78d 0f3f 9ab9 f2bf b3a4 1f3f
