src/visualize/sequence_output/LastFM_BSARec/11layer_4iter.npy (npy, 844928 bytes, 1 tensors)

array f4 [66, 50, 64]
0	0xbe5588a7	-0.2085291
1	0x3fd8c432	1.6934874
2	0xbc717040	-0.014736235
3	0xbf48086a	-0.7813784
4	0x3fecacbf	1.8490218
5	0x3f0b1fa8	0.5434518
6	0x3c789b5a	0.015173757
7	0xbfc5ec49	-1.5462734
8	0xbd4d4f9c	-0.05012475
9	0x3df1a9f8	0.11799997
10	0xbf34f566	-0.7068695
11	0xbfb4c2a6	-1.4121902
12	0xbd4a06f6	-0.049323045
13	0x3f87e870	1.0617809
14	0x3f3b013c	0.7304876
15	0xbfbe8481	-1.4884187
16	0x3f2be050	0.6713915
17	0x3fb2d64b	1.3971647
18	0x3fa826be	1.3136823
19	0x3db69d90	0.089167714
20	0x3ec44264	0.38331902
21	0xbebc7edc	-0.36815536
22	0xbf9cb6e0	-1.2243309
23	0x3ebc588e	0.36786312
24	0xbe024963	-0.12723307
25	0xbef1152c	-0.47086465
26	0x3f8dc0be	1.1074445
27	0x3f727bd4	0.94720197
28	0xbfde3ba3	-1.736195
29	0x3f544ffe	0.8293456
30	0x3fcdeda8	1.6088152
31	0x3eded56d	0.43522206
32	0xc0094e30	-2.1453972
33	0x3f22c3d2	0.6358005
34	0x3e59ac8c	0.21257228
35	0xbeb956c3	-0.36199006
36	0xbf5449b0	-0.8292494
37	0xbfb68442	-1.4259112
38	0xbfeaf408	-1.8355722
39	0x3e05f184	0.13080412
40	0xbfbee2a0	-1.491291
41	0xbf066206	-0.5249332
42	0x3fcb58c0	1.5886459
43	0x3e6bf10d	0.23041172
44	0x3ed48729	0.4150937
45	0xc03d0295	-2.9532826
46	0x3fd3a578	1.6534872
47	0x3f766ff6	0.9626459
48	0x3e6407b2	0.2226856
49	0x3e2ae64c	0.16689414
50	0xbf2ec6eb	-0.68272275
51	0x3f2570f5	0.64625484
52	0xbe129868	-0.14315951
53	0x3ef64a50	0.4810357
54	0x3f2cacc8	0.67451143
55	0x3f73415e	0.9502162
56	0xbfc9226d	-1.5713631
57	0xbf6e5cb6	-0.93110216
58	0x3fa2b7e2	1.2712367
59	0xbf698922	-0.91224873
60	0x3e7df06c	0.24798745
61	0xbef07d54	-0.46970618
62	0x3f837fc4	1.0273366
63	0xbef42db8	-0.4769113
64	0xbe5778e4	-0.2104221
65	0x3fd79acf	1.6844119
66	0xbc6ba35c	-0.01438221
67	0xbf47f02c	-0.7810085
68	0x3fecebb8	1.8509436
69	0x3f0bc0b2	0.54590905
70	0x3c598570	0.013276443
71	0xbfc5c6f4	-1.5451341
72	0xbd425e66	-0.047453307
73	0x3dec2596	0.115306064
74	0xbf356bc4	-0.7086756
75	0xbfb53d36	-1.4159305
76	0xbd5210e4	-0.05128564
77	0x3f87e0b6	1.0615451
78	0x3f3c00ac	0.73438525
79	0xbfbea42f	-1.4893855
80	0x3f2b323b	0.6687352
81	0x3fb34a62	1.4007075
82	0x3fa7bad6	1.3103893
83	0x3ddb7765	0.10716132
84	0x3ec538d0	0.38519907
85	0xbebc882a	-0.36822635
86	0xbf9c42c9	-1.2207881
87	0x3ebe0c81	0.37118915
88	0xbe0248b8	-0.12723053
89	0xbef2a674	-0.4739262
90	0x3f8dc6b6	1.1076267
91	0x3f718985	0.94350463
92	0xbfdecaf7	-1.740569
93	0x3f527ca3	0.8222143
94	0x3fce21f8	1.6104116
95	0x3ede3630	0.43400717
96	0xc00961e4	-2.1465998
97	0x3f237a35	0.6385835
98	0x3e58ef26	0.21184978
99	0xbebae34b	-0.36501536
100	0xbf54d3bd	-0.83135587
101	0xbfb323db	-1.3995317
102	0xbfeb5f7d	-1.8388516
103	0x3e077344	0.13227564
104	0xbfbf3708	-1.4938669
105	0xbf06922e	-0.525668
106	0x3fcb5a1f	1.5886878
107	0x3e6ad5bf	0.229331
108	0x3ed33576	0.41251725
109	0xc03d08be	-2.9536586
110	0x3fd4176c	1.6569648
111	0x3f770a7f	0.9650039
112	0x3e65488b	0.22390954
113	0x3e27e927	0.16397534
114	0xbf2ec5af	-0.6827039
115	0x3f25ab0f	0.6471414
116	0xbe142eac	-0.14470929
117	0x3ef65ecf	0.48119208
118	0x3f2db75c	0.6785791
119	0x3f721c26	0.945742
120	0xbfc9d011	-1.5766622
121	0xbf6f45b6	-0.93465745
122	0x3fa2f4e3	1.2730983
123	0xbf695f84	-0.9116137
124	0x3e7c5ad1	0.24644019
125	0xbef22610	-0.47294664
126	0x3f839874	1.02809
127	0xbef51db5	-0.47874227
128	0xbe59e9c0	-0.21280575
129	0x3fd68cd7	1.6761731
130	0xbc65b01c	-0.0140190385
131	0xbf47d9d1	-0.78066736
132	0x3fed3488	1.8531656
133	0x3f0c7454	0.54865
134	0x3c3b464a	0.011430332
135	0xbfc595e7	-1.5436372
136	0xbd369f79	-0.04458568
137	0x3de658d8	0.11247414
138	0xbf35efe8	-0.7106919
139	0xbfb5b320	-1.419529
140	0xbd5a1bb8	-0.05324909
141	0x3f87d77a	1.0612633
142	0x3f3ce064	0.7377989
143	0xbfbea4ec	-1.489408
144	0x3f2a7f7f	0.66600794
145	0x3fb3c3e3	1.4044155
146	0x3fa74357	1.3067425
147	0x3e001fe5	0.12512167
148	0x3ec61f6c	0.38695848
149	0xbebc916e	-0.36829704
150	0xbf9bce25	-1.2172285
151	0x3ebfd387	0.3746607
152	0xbe026c8a	-0.12736717
153	0xbef44640	-0.47709846
154	0x3f8dc8dc	1.1076922
155	0x3f70865f	0.93955034
156	0xbfdf608b	-1.7451338
157	0x3f506ddc	0.8141763
158	0x3fce58f2	1.6120894
159	0x3edd868e	0.4326672
160	0xc0097079	-2.1474898
161	0x3f244058	0.6416068
162	0x3e58296a	0.21109548
163	0xbebc7c34	-0.3681351
164	0xbf557717	-0.8338484
165	0xbfafaf83	-1.3725437
166	0xbfebcfe7	-1.8422822
167	0x3e0956e8	0.13412058
168	0xbfbf8d6c	-1.4965034
169	0xbf06c499	-0.52643734
170	0x3fcb5f87	1.5888528
171	0x3e69c0bf	0.22827433
172	0x3ed1e601	0.40995792
173	0xc03d0b4d	-2.9538147
174	0x3fd49095	1.6606623
175	0x3f77b167	0.9675507
176	0x3e6685c1	0.2251196
177	0x3e24dcdd	0.16099878
178	0xbf2ec6a9	-0.6827188
179	0x3f25d2cd	0.6477478
180	0xbe1605c8	-0.14650643
181	0x3ef66fa5	0.48132053
182	0x3f2ecac6	0.6827816
183	0x3f70d36c	0.94072604
184	0xbfca86a8	-1.5822344
185	0xbf70338d	-0.9382866
186	0x3fa32d01	1.2748109
187	0xbf692bb8	-0.91082335
188	0x3e7b0443	0.24513344
189	0xbef3da3c	-0.47627437
190	0x3f83b899	1.029071
191	0xbef62811	-0.48077443
192	0xbe5be6a6	-0.21474704
193	0x3fd55533	1.6666626
194	0xbc5fd1a4	-0.013660822
195	0xbf47b740	-0.7801399
196	0x3fed73a9	1.8550922
197	0x3f0d1f13	0.5512554
198	0x3c1ac3a8	0.009446062
199	0xbfc56912	-1.542269
200	0xbd2af60b	-0.04173855
201	0x3de0778a	0.109603
202	0xbf366856	-0.71252954
203	0xbfb634e8	-1.4234896
204	0xbd62a59a	-0.05533371
205	0x3f87cb1c	1.0608859
206	0x3f3df441	0.74200827
207	0xbfbedb4a	-1.4910672
208	0x3f29c4b5	0.66315776
209	0x3fb43e0a	1.4081433
210	0x3fa6cc99	1.3031188
211	0x3e130d58	0.14360559
212	0x3ec72dd0	0.3890214
213	0xbebc987a	-0.3683508
214	0xbf9b4ddd	-1.2133137
215	0x3ec19ea9	0.3781636
216	0xbe026b0a	-0.12736145
217	0xbef5e95a	-0.48029596
218	0x3f8dcb4e	1.1077669
219	0x3f6f7e4b	0.9355208
220	0xbfdff61f	-1.7496985
221	0x3f4e8c98	0.8068328
222	0x3fce8dbd	1.6137005
223	0x3edcd860	0.4313383
224	0xc009845e	-2.148704
225	0x3f24fde6	0.6444992
226	0x3e575c58	0.2103132
227	0xbebe18bb	-0.37128243
228	0xbf560725	-0.8360465
229	0xbfac0b4a	-1.3440945
230	0xbfec3c3b	-1.8455881
231	0x3e0b0744	0.1357699
232	0xbfbfe307	-1.4991158
233	0xbf06f1f5	-0.5271295
234	0x3fcb5dd6	1.5888011
235	0x3e687ecd	0.2270462
236	0x3ed07986	0.40717715
237	0xc03d0e96	-2.9540153
238	0x3fd5064b	1.6642545
239	0x3f784dfa	0.9699398
240	0x3e67dbf5	0.226425
241	0x3e2195da	0.1577982
242	0xbf2ec047	-0.6826214
243	0x3f261213	0.6487133
244	0xbe17a8d0	-0.1481049
245	0x3ef67fb5	0.48144308
246	0x3f2fe056	0.68701684
247	0x3f6f9ae4	0.9359572
248	0xbfcb3e02	-1.5878298
249	0xbf712010	-0.9418955
250	0x3fa36bda	1.2767289
251	0xbf68f7c0	-0.91003036
252	0x3e79467e	0.24343297
253	0xbef59826	-0.47967643
254	0x3f83cec8	1.029748
255	0xbef71e8b	-0.4826549
