src/visualize/sequence_output/LastFM_BSARec/12layer_4iter.npy (npy, 844928 bytes, 1 tensors)

array f4 [66, 50, 64]
-1.0581712 1.0794493 0.043622382 0.018233145 1.9488373 0.10711884 0.07035289 0.314044
-0.10626067 0.24872574 -0.0061018914 -1.4802928 0.36302197 -0.6113277 1.8605329 -1.176568
0.76583433 3.1391828 1.0911728 -0.27277988 0.85355246 -1.0726736 0.5226009 -0.17825869
-0.7981878 -0.7271932 -0.5991405 1.4213252 -0.38781765 -0.25126818 0.48229048 -0.17911223
-2.2725947 0.17907086 0.7639879 0.63766277 -0.692567 -1.4432358 -1.3059974 -0.542284
-1.7989392 0.31048167 0.18237671 0.46963295 1.4027644 -2.2721417 0.77720416 1.3816428
-0.4136091 -0.9527754 -0.45864573 1.4056118 -0.8143096 0.8672217 1.7790533 0.54244584
-2.4563837 0.42356557 0.051225435 -0.40996516 -0.31162715 -0.085463494 0.081095986 0.04839034
-1.0591592 1.0738804 0.043775957 0.017882505 1.9544353 0.10697336 0.0688387 0.3087677
-0.106990054 0.24799226 -0.0070426986 -1.4800467 0.36112693 -0.60903966 1.8605342 -1.175791
0.7704326 3.142842 1.0900688 -0.26285183 0.8514509 -1.0725359 0.51982504 -0.17772593
-0.7963838 -0.72908264 -0.59695864 1.4202528 -0.39490816 -0.2545271 0.48633993 -0.18011934
-2.276809 0.1790265 0.7639077 0.63463664 -0.6941301 -1.4233179 -1.3117095 -0.5423517
-1.8028951 0.3087235 0.18691108 0.46860775 1.4029948 -2.2689748 0.78066236 1.3832848
-0.41551688 -0.95462626 -0.45961753 1.4054799 -0.81532264 0.867213 1.7808355 0.5411135
-2.456022 0.41986972 0.05217455 -0.4107585 -0.31071672 -0.087575234 0.084157765 0.046053465
-1.0601634 1.0686531 0.043921843 0.017473346 1.9602368 0.10682535 0.06726208 0.30324838
-0.10768724 0.24721828 -0.007996988 -1.4797778 0.35917768 -0.60662913 1.8603928 -1.1745391
0.7752529 3.1465554 1.0888389 -0.25277397 0.8492072 -1.0723433 0.5168889 -0.17717837
-0.794608 -0.7310421 -0.594634 1.4190469 -0.40229842 -0.2581576 0.49055108 -0.18112685
-2.2811286 0.17897846 0.7638645 0.63148725 -0.695843 -1.4027344 -1.3176012 -0.5422779
-1.8069842 0.30686098 0.19167155 0.46754906 1.4031581 -2.2657142 0.7843014 1.3849359
-0.41750288 -0.9565134 -0.46059725 1.4052168 -0.81634414 0.86720216 1.7826688 0.5395689
-2.4556808 0.4160151 0.05320545 -0.41166583 -0.30972716 -0.0897702 0.087355256 0.043685865
-1.0611387 1.0626646 0.044125102 0.017094752 1.9661894 0.10675254 0.065746665 0.29769677
-0.10847434 0.24642047 -0.009037007 -1.4796207 0.35715994 -0.604176 1.8602798 -1.1741356
0.78014153 3.1503868 1.0875711 -0.24227253 0.84696144 -1.0722095 0.513954 -0.17658715
-0.79252964 -0.7330199 -0.5924036 1.4178548 -0.40984386 -0.26165637 0.49489507 -0.18227519
-2.2854776 0.17894888 0.76372313 0.628273 -0.697535 -1.3808997 -1.3236458 -0.5422132
-1.8111292 0.3050236 0.19650376 0.46641263 1.4034611 -2.2622397 0.78792316 1.3867335
-0.4195665 -0.95855683 -0.46162814 1.4050119 -0.81751716 0.86724424 1.7844291 0.5381002
-2.455194 0.4120155 0.054164257 -0.41246152 -0.30868214 -0.09210762 0.09065977 0.04107785
00000000: 2772 87bf 652b 8a3f 62ad 323d ad5d 953c
00000010: 8073 f93f 1f61 db3d 2d15 903d 60ca a03e
00000020: 329f d9bd f6b1 7e3e 60f2 c7bb 3c7a bdbf
00000030: 04de b93e f97f 1cbf f125 ee3f c899 96bf
00000040: b80d 443f 5fe8 4840 8dab 8b3f cea9 8bbe
00000050: 6a82 5a3f 5e4d 89bf 2cc9 053f 7289 36be
00000060: 0956 4cbf 5529 3abf 4661 19bf fced b53f
00000070: 0990 c6be 39a6 80be c7ee f63e 3269 37be
00000080: 3172 11c0 5a5e 373e b694 433f de3d 233f
00000090: 124c 31bf f3bb b8bf ec2a a7bf 20d3 0abf
000000a0: a443 e6bf 74f7 9e3e f6c0 3a3e bb73 f03e
000000b0: c98d b33f c56a 11c0 daf6 463f acd9 b03f
000000c0: 92c4 d3be 17e9 73bf 9dd3 eabe 16eb b33f
000000d0: 9876 50bf 3e02 5e3f 05b8 e33f bbdd 0a3f
000000e0: 6435 1dc0 96dd d83e c3d1 513d f4e6 d1be
000000f0: 988d 9fbe 7c07 afbd a715 a63d f334 463d
00000100: 8792 87bf ea74 893f 6b4e 333d 557e 923c
00000110: f02a fa3f d914 db3d 4efb 8c3d cd16 9e3e
00000120: 9a1d dbbd aff1 7d3e 70c6 e6bb 2c72 bdbf
00000130: a1e5 b83e 06ea 1bbf fc25 ee3f 5280 96bf
00000140: 123b 453f 5324 4940 6087 8b3f 8494 86be
00000150: b0f8 593f db48 89bf 4113 053f c9fd 35be
00000160: cfdf 4bbf 29a5 3abf 48d2 18bf d8ca b53f
00000170: 6731 cabe 6051 82be 8c01 f93e 3471 38be
00000180: 3db7 11c0 b952 373e 748f 433f 8c77 223f
00000190: 83b2 31bf 482f b6bf 19e6 a7bf 90d7 0abf
000001a0: 44c5 e6bf 0211 9e3e 9e65 3f3e 5bed ef3e
000001b0: 5595 b33f e236 11c0 7dd9 473f 7a0f b13f
000001c0: a1be d4be 6362 74bf fd52 ebbe c4e6 b33f
000001d0: fcb8 50bf ac01 5e3f 6bf2 e33f 6a86 0a3f
000001e0: 772f 1dc0 2af9 d63e fbb4 553d f04e d2be
000001f0: 4316 9fbe a55a b3bd e85a ac3d 8fa2 3c3d
00000200: 6fb3 87bf a0c9 883f 64e7 333d 4324 8f3c
00000210: 0ae9 fa3f 40c7 da3d b4c0 893d 5f43 9b3e
00000220: 218b dcbd ca26 7d3e cc05 03bc 5c69 bdbf
00000230: 23e6 b73e 0c4c 1bbf 5a21 ee3f 4c57 96bf
00000240: f976 463f 2a61 4940 135f 8b3f 976b 81be
00000250: a565 593f 8c42 89bf d552 043f 3f6e 35be
00000260: 6e6b 4bbf 9325 3bbf ef39 18bf 54a3 b53f
00000270: 0ffa cdbe 3c2d 84be 8329 fb3e 5179 39be
00000280: 03fe 11c0 2146 373e a08c 433f 26a9 213f
00000290: c422 32bf cd8c b3bf 28a7 a8bf b9d2 0abf
000002a0: 424b e7bf e21c 9d3e 8c45 443e 9762 ef3e
000002b0: af9a b33f 7601 11c0 fac7 483f 9445 b13f
000002c0: f0c2 d5be 10de 74bf 67d3 ebbe 25de b33f
000002d0: eefb 50bf f600 5e3f 7e2e e43f 3021 0a3f
000002e0: e029 1dc0 eeff d43e f5ed 593d ddc5 d2be
000002f0: 8f94 9ebe 70d9 b7bd 50e7 b23d f3ef 323d
00000300: 65d3 87bf 6505 883f 86bc 343d 4b0a 8c3c
00000310: 18ac fb3f 13a1 da3d 30a6 863d b66b 983e
00000320: cb27 debd a655 7c3e f40f 14bc 3664 bdbf
00000330: abdd b63e 47ab 1abf a61d ee3f 134a 96bf
00000340: 5bb7 473f f09f 4940 8835 8b3f 4a16 78be
00000350: 77d2 583f 293e 89bf 7d92 033f 43d3 34be
00000360: 39e3 4abf 31a7 3bbf c3a7 17bf 447c b53f
00000370: 0ed7 d1be d3f7 85be e362 fd3e 59a6 3abe
00000380: 4445 12c0 603e 373e 5c83 433f 80d6 203f
00000390: a791 32bf 52c1 b0bf 3a6d a9bf 7cce 0abf
000003a0: 15d3 e7bf 0e2c 9c3e 4838 493e a3cd ee3e
000003b0: 9da4 b33f 89c8 10c0 55b5 493f 7c80 b13f
000003c0: 6cd1 d6be fb63 75bf 865a ecbe 6ed7 b33f
000003d0: ce48 51bf b803 5e3f 2c68 e43f efc0 093f
000003e0: e621 1dc0 b2f3 d23e 57db 5d3d 282e d3be
000003f0: 960b 9ebe eba2 bcbd d4ab b93d 3f41 283d
