src/visualize/sequence_output/LastFM_BSARec/13layer_4iter.npy (npy, 844928 bytes, 1 tensors)

array f4 [66, 50, 64]
0	0xbf2b8600	-0.6700134
1	0x3f8085ae	1.0040796
2	0x3d8974e2	0.06711747
3	0x3f172300	0.5903778
4	0x3f93c174	1.1543412
5	0x3ebc8309	0.36818722
6	0x3f7d71ca	0.99001753
7	0xbf73d020	-0.9523945
8	0xbf346ec9	-0.70481545
9	0x3fa76687	1.3078164
10	0xbecf21c5	-0.40455452
11	0xbfbe99d7	-1.4890698
12	0x3eb6f67e	0.35734934
13	0xbfaffb60	-1.3748589
14	0x400f0379	2.234587
15	0xbee16c0b	-0.44027743
16	0x3f8467d4	1.0344186
17	0x3fa23d99	1.2675048
18	0xbe1e9e86	-0.1549016
19	0xbe95b548	-0.2923987
20	0x400701a6	2.1094756
21	0xc0019fdc	-2.025382
22	0xbf4f9b56	-0.810964
23	0x3f09d1ad	0.53835565
24	0xbebbdc6b	-0.36691603
25	0xbf306a84	-0.6891253
26	0xbf5ac123	-0.85450953
27	0x3e8ae23c	0.27125728
28	0xbe9dea36	-0.3084275
29	0x3f329b41	0.6976815
30	0x3e5443d6	0.20729002
31	0xbe2e8ac3	-0.17045121
32	0xc0181508	-2.3762836
33	0x3e247dcb	0.16063611
34	0xbddf395b	-0.108996116
35	0x3fe525a1	1.7902108
36	0x3f0a8a3d	0.54117185
37	0xbf4be95e	-0.79652965
38	0xbf87845d	-1.0587269
39	0x3e80d8e4	0.25165474
40	0xbfceae4c	-1.6146941
41	0xbff99c70	-1.9500866
42	0x3e0206ac	0.12697858
43	0xbf39ea1b	-0.7262284
44	0x3f979bed	1.184446
45	0xbfe55ebd	-1.7919537
46	0xbd9eabe4	-0.07747629
47	0x3fbf9362	1.4966853
48	0x3f0e5061	0.555914
49	0xbf43fad2	-0.76554596
50	0xbc12722c	-0.0089383535
51	0x3eae6963	0.3406478
52	0xbfafe55f	-1.3741874
53	0x3f339245	0.70145065
54	0x3fe0aa6a	1.7552006
55	0x3f55e796	0.835565
56	0xbea331e7	-0.3187401
57	0xbe16378f	-0.14669631
58	0x3d6d1f0e	0.057890944
59	0xbdaf075e	-0.08546327
60	0x400f8460	2.2424545
61	0xbfcf5b20	-1.6199684
62	0x3fc94bd5	1.5726267
63	0xbf4d0cb4	-0.8009751
64	0xbf2bf706	-0.671738
65	0x3f7f88ac	0.9981792
66	0x3d8808a3	0.06642272
67	0x3f1692dd	0.58817846
68	0x3f94735a	1.1597703
69	0x3ebc43fb	0.36770615
70	0x3f7d49fc	0.98941016
71	0xbf740eb5	-0.9533494
72	0xbf34c05b	-0.7060601
73	0x3fa71371	1.3052808
74	0xbecf95c6	-0.40543956
75	0xbfbe31d2	-1.4858954
76	0x3eb72174	0.3576771
77	0xbfaff5be	-1.374687
78	0x400f0bcb	2.2350948
79	0xbedf803a	-0.43652517
80	0x3f84a3f9	1.036254
81	0x3fa31209	1.2739879
82	0xbe20bb4f	-0.15696453
83	0xbe92a71f	-0.28643128
84	0x4006f463	2.1086662
85	0xc001befc	-2.0272818
86	0xbf4f52d9	-0.8098579
87	0x3f09726d	0.53690225
88	0xbebcc7d9	-0.36871222
89	0xbf30750e	-0.6892861
90	0xbf5b2dc0	-0.85616684
91	0x3e8b7d48	0.2724402
92	0xbe9f0687	-0.31059667
93	0x3f31f9e6	0.6952194
94	0x3e550739	0.20803536
95	0xbe305c82	-0.17222789
96	0xc01834f6	-2.3782325
97	0x3e234ac8	0.15946496
98	0xbddec086	-0.10876565
99	0x3fe51c26	1.7899215
100	0x3f0a0414	0.5391247
101	0xbf484746	-0.78233755
102	0xbf882b76	-1.0638263
103	0x3e813c24	0.25241196
104	0xbfcf5c58	-1.6200056
105	0xbff97b24	-1.9490705
106	0x3e04810c	0.12939852
107	0xbf3a11c2	-0.72683346
108	0x3f97cf99	1.1860229
109	0xbfe486cb	-1.7853636
110	0xbd9b0d20	-0.07570863
111	0x3fbfd3a0	1.4986458
112	0x3f0df00d	0.55444413
113	0xbf44336a	-0.7664095
114	0xbc476df8	-0.012172215
115	0x3eaedd4e	0.34153217
116	0xbfb02dcb	-1.3763975
117	0x3f33de2c	0.7026088
118	0x3fe0d169	1.7563907
119	0x3f555aab	0.83341473
120	0xbea3b71f	-0.31975648
121	0xbe165c27	-0.14683591
122	0x3d68097c	0.05664967
123	0xbdb150b0	-0.08657968
124	0x400f7b3c	2.2418966
125	0xbfcf809e	-1.6211126
126	0x3fc93c89	1.5721599
127	0xbf4d1383	-0.801079
128	0xbf2c6b1c	-0.67350936
129	0x3f7e03ce	0.99224555
130	0x3d868731	0.065687545
131	0x3f15fc55	0.58588153
132	0x3f952b6a	1.1653874
133	0x3ebc03cb	0.36721644
134	0x3f7d1cf0	0.9887228
135	0xbf745010	-0.95434666
136	0xbf350f6e	-0.7072667
137	0x3fa6bcfc	1.3026423
138	0xbed0084f	-0.4063134
139	0xbfbdc907	-1.4826974
140	0x3eb74bc6	0.35799998
141	0xbfaff0cf	-1.3745364
142	0x400f13ab	2.2355754
143	0xbedd6d1f	-0.43247315
144	0x3f84e13b	1.0381235
145	0x3fa3ed06	1.2806709
146	0xbe22ee76	-0.15911278
147	0xbe8f7d35	-0.28025213
148	0x4006e5ed	2.1077836
149	0xc001de7e	-2.0292048
150	0xbf4f08a1	-0.8087254
151	0x3f090ef8	0.53538465
152	0xbebdbed3	-0.3705965
153	0xbf308083	-0.68946093
154	0xbf5b9a66	-0.8578247
155	0x3e8c1ef6	0.2736737
156	0xbea02cc4	-0.31284153
157	0x3f314c37	0.6925692
158	0x3e55d3ca	0.20881572
159	0xbe323926	-0.17404613
160	0xc01856d8	-2.3803005
161	0x3e220f5b	0.1582617
162	0xbdde41a7	-0.10852366
163	0x3fe51297	1.7896298
164	0x3f09782b	0.53698987
165	0xbf447f55	-0.76756793
166	0xbf88d7cd	-1.0690857
167	0x3e81a756	0.2532298
168	0xbfd00fa5	-1.6254774
169	0xbff958d5	-1.9480234
170	0x3e0713e0	0.13191175
171	0xbf3a3788	-0.72740984
172	0x3f9804f7	1.1876515
173	0xbfe3a8a8	-1.7785845
174	0xbd974010	-0.07385266
175	0x3fc014b6	1.500632
176	0x3f0d8af8	0.55290174
177	0xbf446eb5	-0.76731426
178	0xbc7dc708	-0.015489347
179	0x3eaf58cb	0.3424743
180	0xbfb0772a	-1.3786366
181	0x3f342a57	0.70377105
182	0x3fe0f996	1.7576168
183	0x3f54c7c0	0.83117294
184	0xbea44fab	-0.32092032
185	0xbe167f3e	-0.14696977
186	0x3d62cb64	0.05536975
187	0xbdb3b2f2	-0.087743655
188	0x400f7021	2.2412188
189	0xbfcfa767	-1.6222962
190	0x3fc92b71	1.5716382
191	0xbf4d184f	-0.80115217
192	0xbf2ce028	-0.67529535
193	0x3f7c6286	0.98587835
194	0x3d84f126	0.06491308
195	0x3f1561bd	0.5835226
196	0x3f95e7ba	1.1711342
197	0x3ebbc5e3	0.36674413
198	0x3f7ceeb1	0.98801714
199	0xbf7494b6	-0.95539415
200	0xbf355e7e	-0.7084731
201	0x3fa6637c	1.299911
202	0xbed07a93	-0.40718517
203	0xbfbd6344	-1.4795918
204	0x3eb77bf6	0.35836762
205	0xbfafebb6	-1.3743808
206	0x400f1b0a	2.2360253
207	0xbedb8c87	-0.4288065
208	0x3f851ea7	1.0399979
209	0x3fa4ccd8	1.2875013
210	0xbe253c2c	-0.16136235
211	0xbe8c2701	-0.27373508
212	0x4006d74b	2.1068904
213	0xc001fece	-2.031177
214	0xbf4ebd48	-0.8075757
215	0x3f08a9dd	0.5338419
216	0xbebeb628	-0.3724835
217	0xbf308914	-0.68959165
218	0xbf5c0947	-0.85951656
219	0x3e8cc55e	0.2749433
220	0xbea155c4	-0.31510746
221	0x3f309d94	0.68990445
222	0x3e56a216	0.20960268
223	0xbe342361	-0.17591621
224	0xc0187948	-2.3824024
225	0x3e20ca84	0.15702254
226	0xbddddade	-0.10832761
227	0x3fe509f8	1.7893667
228	0x3f08eb3e	0.5348395
229	0xbf407ebb	-0.75193375
230	0xbf898751	-1.074442
231	0x3e821658	0.25407672
232	0xbfd0c66c	-1.6310554
233	0xbff93519	-1.9469329
234	0x3e09be73	0.13451557
235	0xbf3a5e1e	-0.7279986
236	0x3f983cf6	1.1893604
237	0xbfe2c29c	-1.771564
238	0xbd935770	-0.07194412
239	0x3fc056fc	1.5026546
240	0x3f0d2307	0.5513157
241	0xbf44ad34	-0.76826787
242	0xbc9aba9a	-0.018887807
243	0x3eafdaac	0.3434652
244	0xbfb0c14d	-1.3808991
245	0x3f347845	0.70496017
246	0x3fe1210f	1.7588214
247	0x3f54355a	0.8289391
248	0xbea4eb97	-0.3221099
249	0xbe16a6bc	-0.14712042
250	0x3d5d5196	0.054032885
251	0xbdb61e26	-0.08892469
252	0x400f6417	2.240484
253	0xbfcfd10d	-1.6235672
254	0x3fc91a1e	1.5711095
255	0xbf4d1d1c	-0.8012254
