src/visualize/sequence_output/LastFM_BSARec/14layer_4iter.npy (npy, 844928 bytes, 1 tensors)

array f4 [66, 50, 64]
-1.0066941 0.020528525 0.054046944 0.2755984 0.4287864 -0.029476408 0.91728145 -0.27311328
-0.44954243 0.62744385 -1.1696217 -1.0604249 1.0913955 0.06008939 0.19110258 -0.9254729
0.44042754 0.5986891 -0.33671075 0.49896258 0.12148155 -2.4660642 0.14342766 0.49770224
0.33963633 -0.66732794 -0.027634397 -0.18928365 -0.8119501 0.6714044 -0.10216625 -0.040895093
-1.0718346 -0.0035156608 -0.2517522 1.4468435 1.2369804 -0.38206553 -3.19048 0.86913794
-3.132399 0.07617614 0.96685535 -0.4356664 0.6233566 -0.99237835 0.50947326 2.590442
-0.019576505 0.042615518 -0.52639925 -0.41298687 -2.9305081 0.19748496 0.45516947 -0.45814297
-0.24800345 0.41872293 0.02740201 -0.46068236 3.4526463 0.43754226 3.500942 -0.028501397
-1.0071173 0.016982056 0.05377607 0.27312928 0.42686126 -0.02829947 0.9182175 -0.27273387
-0.45402166 0.6296393 -1.1702754 -1.0536656 1.0926367 0.06267385 0.19035068 -0.922292
0.44076055 0.5990522 -0.33743092 0.49816728 0.121159896 -2.467798 0.14258382 0.4976322
0.33594635 -0.66499794 -0.027985863 -0.18882982 -0.81085056 0.6700552 -0.098242894 -0.04422714
-1.0675164 -0.004617095 -0.2502369 1.4491838 1.2320977 -0.37567514 -3.1920674 0.8677851
-3.133797 0.07260259 0.9693179 -0.43852425 0.62389505 -0.98747253 0.50899196 2.5923629
-0.019627081 0.042648107 -0.53031886 -0.41288435 -2.9335024 0.19642109 0.4538826 -0.45946598
-0.24540538 0.41703528 0.029340982 -0.4592268 3.4532616 0.43528175 3.503787 -0.030377267
-1.0075458 0.0133643225 0.053498887 0.27058274 0.4248716 -0.027078722 0.91917324 -0.27234048
-0.458624 0.6318842 -1.1709485 -1.0467503 1.0939105 0.065327406 0.1895679 -0.9189776
0.44109982 0.5994296 -0.3381711 0.49736226 0.12082416 -2.4695716 0.14171942 0.4975605
0.33215252 -0.6625907 -0.028347272 -0.18835849 -0.8097087 0.6686439 -0.09419702 -0.04766198
-1.0630833 -0.0057495516 -0.24867453 1.4515808 1.2270621 -0.3690644 -3.1936824 0.86639136
-3.1352172 0.06892909 0.9718561 -0.44146255 0.6244476 -0.9824376 0.50849265 2.5943322
-0.019681416 0.04268615 -0.53436285 -0.41278094 -2.9365666 0.1953269 0.45255074 -0.4608268
-0.24274758 0.41529977 0.03133504 -0.45772132 3.4538605 0.4329579 3.5066793 -0.032305535
-1.0079699 0.009637199 0.053221934 0.26797795 0.42282653 -0.025828157 0.92015237 -0.27192712
-0.463316 0.63415676 -1.1716366 -1.039768 1.0952122 0.06803751 0.18875854 -0.91571754
0.4414347 0.59981287 -0.33892113 0.49659038 0.120484255 -2.471351 0.1408465 0.49748582
0.32828614 -0.6601034 -0.028715536 -0.18787059 -0.80851674 0.66721654 -0.09005928 -0.051171876
-1.0585538 -0.006904263 -0.24707165 1.4540155 1.2219135 -0.36217785 -3.1953118 0.86495936
-3.136637 0.06519917 0.97445154 -0.44446343 0.6250033 -0.9773129 0.50797766 2.5963242
-0.019742243 0.04272794 -0.53850573 -0.41268605 -2.939664 0.1942155 0.45115402 -0.4622001
-0.24004412 0.41351917 0.033371624 -0.45616573 3.4544308 0.43059045 3.5095909 -0.03427507
00000000: 5adb 80bf 702b a83c 5460 5d3d 3c1b 8d3e
00000010: e489 db3e 8278 f1bc f5d2 6a3f 81d5 8bbe
00000020: 6d2a e6be 29a0 203f 2ab6 95bf 01bc 87bf
00000030: d9b2 8b3f 4b20 763d 65b0 433e cbeb 6cbf
00000040: b87f e13e b043 193f 5a65 acbe 0678 ff3e
00000050: 52cb f83d ffd3 1dc0 b3de 123e d4d2 fe3e
00000060: d0e4 ad3e 01d6 2abf 8861 e2bc 93d3 41be
00000070: f6db 4fbf 29e1 2b3f 8a3c d1bd 9d81 27bd
00000080: e031 89bf 0067 66bb aae5 80be 2b32 b93f
00000090: 6055 9e3f 189e c3be d330 4cc0 d37f 5e3f
000000a0: 3a79 48c0 3c02 9c3d d583 773f ab0f dfbe
000000b0: 4c94 1f3f 820c 7ebf d76c 023f cdc9 2540
000000c0: e85e a0bc 9c8d 2e3d 1ac2 06bf 0473 d3be
000000d0: 728d 3bc0 7f39 4a3e f90b e93e b791 eabe
000000e0: 9ef4 7dbe da62 d63e 2e7a e03c 8fde ebbe
000000f0: 28f8 5c40 8a05 e03e 6f0f 6040 c37b e9bc
00000100: 38e9 80bf f41d 8b3c 4c44 5c3d 9ad7 8b3e
00000110: 8f8d da3e 4ad4 e7bc 4d10 6b3f c6a3 8bbe
00000120: 8775 e8be 0b30 213f 96cb 95bf 84de 86bf
00000130: 85db 8b3f 265b 803d 4aeb 423e 541b 6cbf
00000140: 5eab e13e 7c5b 193f bfc3 acbe c80f ff3e
00000150: ae22 f83d 67f0 1dc0 7e01 123e a6c9 fe3e
00000160: 2901 ac3e 4e3d 2abf 9c42 e5bc 9b5c 41be
00000170: e793 4fbf bd88 2b3f 9233 c9bd 8427 35bd
00000180: 61a4 88bf 004b 97bb 0d1f 80be db7e b93f
00000190: 61b5 9d3f 7e58 c0be d54a 4cc0 2a27 5e3f
000001a0: 2190 48c0 abb0 943d 3825 783f 4086 e0be
000001b0: 96b7 1f3f 00cb 7cbf 4c4d 023f 46e9 2540
000001c0: f9c8 a0bc c8af 2e3d fac2 07bf 9465 d3be
000001d0: 81be 3bc0 9c22 493e 4d63 e83e 203f ebbe
000001e0: 8c4b 7bbe a685 d53e 805c f03c c61f ebbe
000001f0: 3d02 5d40 40dd de3e 0c3e 6040 bfd9 f8bc
00000200: 43f7 80bf 08f6 5a3c a621 5b3d d289 8a3e
00000210: c588 d93e 32d4 ddbc f04e 6b3f 3670 8bbe
00000220: c4d0 eabe 2ac3 213f a4e1 95bf eafb 85bf
00000230: 4205 8c3f 60ca 853d 161e 423e 1e42 6bbf
00000240: d6d7 e13e 3874 193f c324 adbe 44a6 fe3e
00000250: a872 f73d 760d 1ec0 e51e 113e 40c0 fe3e
00000260: e50f aa3e 8b9f 29bf 8a38 e8bc 0ce1 40be
00000270: 1249 4fbf 3f2c 2b3f 5eea c0bd 3539 43bd
00000280: 1d13 88bf bc66 bcbb 89a4 7ebe 66cd b93f
00000290: 5f10 9d3f 02f6 bcbe 4b65 4cc0 d3cb 5d3f
000002a0: 66a7 48c0 b22a 8d3d 90cb 783f 6107 e2be
000002b0: ccdb 1f3f 0881 7bbf 932c 023f 8a09 2640
000002c0: ec3a a1bc acd7 2e3d 01cc 08bf 0658 d3be
000002d0: b5f0 3bc0 c603 483e bbb4 e73e 7ef1 ebbe
000002e0: d292 78be 2ca2 d43e 2c59 003d 735a eabe
000002f0: 0d0c 5d40 a8ac dd3e 6f6d 6040 cf52 04bd
00000300: 2805 81bf 58e5 1d3c 3eff 593d 6834 893e
00000310: b87c d83e 9295 d3bc 1b8f 6b3f 083a 8bbe
00000320: c137 edbe 1958 223f 30f8 95bf 1e17 85bf
00000330: ea2f 8c3f 4057 8b3d eb49 413e 776c 6abf
00000340: bb03 e23e 568d 193f 1287 adbe 1841 fe3e
00000350: 73c0 f63d 9d2a 1ec0 113a 103e 76b6 fe3e
00000360: 1f15 a83e 89fc 28bf d83c ebbc 2661 40be
00000370: f4fa 4ebf b4ce 2a3f 0071 b8bd 9a99 51bd
00000380: b17e 87bf 283d e2bb 5a00 7dbe 2e1d ba3f
00000390: a967 9c3f 606f b9be fd7f 4cc0 fa6d 5d3f
000003a0: a9be 48c0 2487 853d a875 793f b690 e3be
000003b0: 3700 203f 2e31 7abf d30a 023f 2d2a 2640
000003c0: 7cba a1bc 7e03 2f3d 83db 09bf 964b d3be
000003d0: 7423 3cc0 6ee0 463e a9fd e63e 7ea5 ecbe
000003e0: 20ce 75be c9b8 d33e afb0 083d 8e8e e9be
000003f0: 6515 5d40 5a76 dc3e 239d 6040 0464 0cbd
