src/visualize/sequence_output/LastFM_BSARec/15layer_4iter.npy (npy, 844928 bytes, 1 tensors)

array f4 [66, 50, 64]
000000 97 23 27 bf 75 9d 61 3e 94 8e dc 3d e3 05 6f 3e
       -0.6528868 0.22032721 0.10769382 0.2334209
000010 b6 8f f3 3d 6d a0 b3 3e 9a b8 91 3f e3 07 14 3e
       0.11892645 0.35083333 1.1384461 0.14456134
000020 f8 9c b4 bc 68 3c 04 3f ce 1c bb bf b2 43 62 be
       -0.022047505 0.5165467 -1.4618165 -0.22096136
000030 c9 81 76 3f 88 24 a8 be 3d 19 8f 3e 72 19 39 be
       0.96291786 -0.3284037 0.27948943 -0.18076113
000040 cb 4f 31 be a9 f0 8b 3f e3 9d d4 be c5 f8 b9 3e
       -0.17315595 1.0932819 -0.41526708 0.3632261
000050 5a a4 d7 bc 99 cd eb bf 49 42 8f bc 3a 42 d8 3e
       -0.026323486 -1.8422118 -0.017487662 0.42238027
000060 9f da 8d 3e 45 ed bc be 8c 56 bc bd 31 a7 4c 3e
       0.27705857 -0.36899772 -0.09196195 0.19985653
000070 0c 68 a4 be 6b d5 f9 3e b7 6b 4e 3e e2 2d 91 3d
       -0.3211063 0.48795637 0.20158277 0.070888296
000080 64 1b de 3e 54 49 23 be fc ed b1 bd 93 e2 bd 3f
       0.43380272 -0.15945941 -0.0868797 1.483477
000090 db 40 5d 3e 18 0f 7b bd ae c5 4c c0 64 28 d7 3e
       0.21606772 -0.06129369 -3.1995654 0.42023003
0000a0 d8 a9 79 c0 91 f1 5f be 92 27 c1 3e 4c a3 77 bf
       -3.9009914 -0.21869494 0.37725502 -0.96733546
0000b0 98 be 8e 3e fe 2c fc be 41 06 6a be 3e 72 40 40
       0.27879786 -0.49253076 -0.22853948 3.0069728
0000c0 b6 3a 9f bd de eb 2f 3e 3a 5c 7d bf 9d ab 08 be
       -0.0777487 0.1717982 -0.9896885 -0.13346715
0000d0 e4 44 5e c0 15 29 c1 3d f5 a4 17 be 01 73 73 3e
       -3.4729548 0.09431664 -0.1480902 0.2377434
0000e0 52 da 17 be 39 e5 eb 3d f2 30 38 be 9c 36 c3 be
       -0.14829376 0.1151833 -0.17987421 -0.381276
0000f0 c3 9c 3c 40 72 21 a2 be df 5a 99 40 d4 f1 dd be
       2.947068 -0.31666142 4.7923427 -0.43348563
000100 72 4e 27 bf 9f a0 60 3e a2 05 df 3d 7b 9d 6c 3e
       -0.65354073 0.21936272 0.10889746 0.23106949
000110 6c 6e f6 3d 72 c5 b4 3e ca d1 91 3f 0b 47 13 3e
       0.1203278 0.3530689 1.1392148 0.1438257
000120 b8 6a c4 bc 3b 3d 04 3f 8f 11 bb bf 9a 80 5e be
       -0.023976669 0.5165593 -1.4614733 -0.21728745
000130 5a cc 76 3f 77 d3 a7 be 03 74 8e 3e 00 9c 37 be
       0.96405566 -0.32778522 0.27822885 -0.17930603
000140 e3 ca 30 be 0a 0a 8c 3f f8 84 d4 be f0 89 b8 3e
       -0.17264895 1.0940564 -0.41507697 0.36042738
000150 49 5f cf bc eb ff eb bf ea 66 96 bc cf bf d8 3e
       -0.02531399 -1.8437475 -0.01835962 0.42333838
000160 da 20 8e 3e c4 c4 bb be 2a ef be bd 9c 3a 4d 3e
       0.2775944 -0.36673558 -0.09322961 0.20041889
000170 2b cd a4 be 27 36 f9 3e d3 2d 50 3e 02 c8 8f 3d
       -0.3218778 0.48674127 0.2032998 0.0702057
000180 6a a9 de 3e ab c7 21 be 59 49 af bd 15 c1 bd 3f
       0.43488628 -0.15798824 -0.08558912 1.4824549
000190 86 19 5a 3e fe 07 73 bd bc ce 4c c0 65 b4 d6 3e
       0.21298799 -0.059333794 -3.200118 0.41934505
0001a0 99 de 79 c0 1c a4 60 be a0 f4 c1 3e 4b a3 77 bf
       -3.9042113 -0.21937603 0.37881947 -0.9673354
0001b0 ca ba 8e 3e d8 2e fb be 26 fb 69 be 3e 79 40 40
       0.27876884 -0.49059176 -0.22849712 3.0074
0001c0 17 fd 9e bd 7c 25 30 3e 55 db 7d bf 47 e3 09 be
       -0.07763117 0.17201799 -0.991628 -0.13465606
0001d0 89 45 5e c0 94 d8 c2 3d ae 85 17 be b3 f8 72 3e
       -3.472994 0.09513965 -0.14797089 0.23727684
0001e0 b2 d5 16 be 65 94 ec 3d 7c 9b 38 be 51 f9 c2 be
       -0.14729956 0.115517415 -0.18028063 -0.38080838
0001f0 dd b5 3c 40 01 ab a2 be 8d 39 99 40 a5 aa de be
       2.9486 -0.3177109 4.7882752 -0.43489566
000200 74 7a 27 bf 9d 9d 5f 3e 02 8e e1 3d 95 24 6a 3e
       -0.65421224 0.21837468 0.11013414 0.22865517
000210 e4 5f f9 3d 21 f3 b5 3e be eb 91 3f d9 7f 12 3e
       0.12176493 0.35537055 1.1400068 0.14306583
000220 10 b0 d4 bc 14 3e 04 3f f4 05 bb bf a4 a6 5a be
       -0.02596286 0.51657224 -1.4611192 -0.21352631
000230 42 19 77 3f 46 80 a7 be 2e ca 8d 3e 16 14 36 be
       0.96522915 -0.32715052 0.27693313 -0.177811
000240 d7 41 30 be 1f 24 8c 3f 66 6b d4 be fd 12 b7 3e
       -0.17212616 1.0948523 -0.41488189 0.35756674
000250 6f de c6 bc 54 33 ec bf 2d bf 9d bc 79 41 d9 3e
       -0.024275986 -1.8453164 -0.019256199 0.42432764
000260 51 68 8e 3e 4a 94 ba be 3a 9b c1 bd 63 d2 4d 3e
       0.27813962 -0.3644126 -0.09453435 0.20099787
000270 c6 34 a5 be fd 91 f8 3e b0 fd 51 3e 7e 55 8e 3d
       -0.32266825 0.4854888 0.2050693 0.069499
000280 e4 3a df 3e 11 3b 20 be aa 90 ac bd a6 9e bd 3f
       0.43599617 -0.15647532 -0.0842603 1.4814041
000290 6b dc 56 3e a2 c2 6a bd dc d7 4c c0 10 3e d6 3e
       0.2098252 -0.057314523 -3.200675 0.41844225
0002a0 8d 14 7a c0 c7 5b 61 be 64 c7 c2 3e 7e a3 77 bf
       -3.9075043 -0.22007667 0.38042748 -0.96733844
0002b0 e0 b6 8e 3e 18 2a fa be 6b f0 69 be 52 80 40 40
       0.27873898 -0.4886024 -0.22845618 3.007832
0002c0 f4 be 9e bd f5 60 30 3e 40 5e 7e bf 89 24 0b be
       -0.07751265 0.17224486 -0.99362564 -0.13588156
0002d0 17 46 5e c0 f6 91 c4 3d c0 66 17 be 0f 7a 72 3e
       -3.473028 0.09598152 -0.1478529 0.23679374
0002e0 60 ca 15 be 5d 47 ed 3d d5 07 39 be 8c b9 c2 be
       -0.14627981 0.11585877 -0.18069394 -0.38032186
0002f0 7d cf 3c 40 c5 38 a3 be 37 17 99 40 f3 68 df be
       2.950164 -0.3187925 4.784084 -0.43634757
000300 23 a7 27 bf 8d 93 5e 3e d6 1f e4 3d eb a1 67 3e
       -0.65489405 0.21735974 0.11138885 0.2262036
000310 d4 5a fc 3d 56 26 b7 3e 4c 06 92 3f 37 b4 11 3e
       0.123220116 0.35771435 1.1408172 0.14228903
000320 98 40 e5 bc 0f 3f 04 3f 28 fa ba bf e6 c3 56 be
       -0.027984902 0.5165872 -1.4607592 -0.20973167
000330 c5 67 77 3f a1 2b a7 be 2b 1e 8d 3e 0e 91 34 be
       0.96642715 -0.32650474 0.2756208 -0.17633459
000340 d6 b5 2f be 97 3e 8c 3f 15 51 d4 be d7 99 b5 3e
       -0.17159209 1.0956601 -0.4146811 0.35468933
000350 41 34 be bc 46 67 ec bf 58 32 a5 bc 4a c6 d9 3e
       -0.023218276 -1.8469017 -0.020165607 0.42534095
000360 d5 af 8e 3e 1b 5f b9 be 66 53 c4 bd 5a 6d 4e 3e
       0.27868524 -0.36205372 -0.095862195 0.20158902
000370 7d 9d a5 be 9d eb f7 3e 93 d6 53 3e 90 da 8c 3d
       -0.32346717 0.48421946 0.20687322 0.06877625
000380 64 ce df 3e d3 a7 1e be b8 ca a9 bd b4 7b bd 3f
       0.4371215 -0.15493707 -0.08290619 1.4803376
000390 98 93 53 3e 92 39 62 bd e3 e0 4c c0 b1 c6 d5 3e
       0.20661771 -0.055230685 -3.201226 0.41753152
0003a0 03 4b 7a c0 d7 16 62 be 96 9d c3 3e 1a a4 77 bf
       -3.9108284 -0.22079025 0.38206166 -0.96734774
0003b0 ee b2 8e 3e ca 21 f9 be a9 e6 69 be 58 87 40 40
       0.27870888 -0.48658592 -0.22841896 3.0082607
0003c0 ea 80 9e bd fb 9c 30 3e 76 e3 7e bf ce 6b 0c be
       -0.07739432 0.17247383 -0.9956583 -0.13712999
0003d0 99 46 5e c0 95 4f c6 3d 9b 49 17 be 3f f8 71 3e
       -3.473059 0.09683148 -0.14774172 0.23629855
0003e0 78 bb 14 be 8b fb ed 3d 18 74 39 be 4a 77 c2 be
       -0.14524639 0.11620244 -0.18110693 -0.37981635
0003f0 51 e9 3c 40 77 c9 a3 be 3e f4 98 40 6e 2a e0 be
       2.9517405 -0.31989643 4.7798147 -0.4378237
