src/visualize/sequence_output/LastFM_BSARec/16layer_4iter.npy (npy, 844928 bytes, 1 tensors)

array f4 [66, 50, 64]
00000000: 896b fdbe 497d 44be caae e53d 826d 4d3e
00000010: 4c86 923e b90e b53e 2e11 3e3f 9899 dc3d
00000020: 4ebb b2be ce5d e13e c3f1 63bf 8b3b 20be
00000030: d047 2f3f 40d9 37be 3a2b 0f3e d8b9 163e
00000040: 1e6a 60be c10c 623f 9ad4 a8be 49b6 2c3e
00000050: 4487 50bd 09ae a6bf 72d1 4bbe 8a9a 9e3d
00000060: 33d7 803e a464 acbe ba8e e4bd af93 3b3e
00000070: f620 6abe 39cf 923e b09e ae3e 14bc 64be
00000080: 9d43 023f da5e a23d 22fd 44be 0769 823f
00000090: 9678 133e 9063 e639 f495 14c0 1097 413c
000000a0: ae7f 39c0 49a7 2bbe 082a 0d3f 5bb2 34bf
000000b0: a631 773d 0053 6ebe 5621 15bd 9af4 2140
000000c0: 3df1 ad3d 2255 54bd bbb9 5fbf e829 1dbe
000000d0: a52d 06c0 50a1 993e f00f 3b3c 6e08 2e3d
000000e0: c722 eabc 32c2 a7be d5ae 91be f2c5 27be
000000f0: b21a 0140 b1ba a6be 09b7 2b40 50ee e5be
00000100: d0c0 fdbe 574f 45be 023a e63d c6d2 493e
00000110: a785 923e e2cf b53e 420f 3e3f debf db3d
00000120: 78ca b2be d34a e13e c6f7 63bf 8fb6 1abe
00000130: 3b3f 2f3f f7bc 37be 6031 0f3e 5b08 193e
00000140: eabc 60be 3a1c 623f 5fff a8be 6fb5 283e
00000150: 8e38 52bd 63ba a6bf e47c 4bbe 7446 9f3d
00000160: 7c0b 813e 1caf abbe 608b e4bd 72b5 3b3e
00000170: 08ca 6abe d934 923e cacb ae3e 8804 65be
00000180: 9ca3 023f 720c a13d 3f4c 45be 0c61 823f
00000190: ab69 103e d413 323b 4592 14c0 a848 433c
000001a0: 7f78 39c0 fb51 2cbe 313b 0d3f ed9e 34bf
000001b0: 92c9 773d 364e 6cbe 4cb1 16bd 5fed 2140
000001c0: 5430 ae3d fc42 55bd fdf0 5fbf aabf 1ebe
000001d0: 0a33 06c0 0ab6 993e 20d9 4d3c 6a64 2d3d
000001e0: d315 e3bc bc7f a7be d0f2 91be b26a 27be
000001f0: 3c1f 0140 2f70 a7be 2fc6 2b40 6635 e6be
00000200: de1a febe 8924 46be d6d5 e63d 622a 463e
00000210: ae87 923e e797 b63e 9e0e 3e3f 42de da3d
00000220: 5ede b2be bc39 e13e dbfd 63bf 521d 15be
00000230: 2338 2f3f 47a1 37be 0636 0f3e a65c 1b3e
00000240: ac0a 61be 622d 623f cc2b a9be d7ac 243e
00000250: 20ea 53bd f5c6 a6bf 5c29 4bbe d405 a03d
00000260: 9941 813e fdf5 aabe 9d97 e4bd a2dc 3b3e
00000270: 6d78 6bbe 9798 913e a7ff ae3e 9b54 65be
00000280: 9905 033f 00c2 9f3d 929d 45be bb58 823f
00000290: 3d4b 0d3e 5240 a53b 338e 14c0 f030 453c
000002a0: 6c71 39c0 e700 2dbe 7c4e 0d3f 708c 34bf
000002b0: 406c 783d cc41 6abe 434f 18bd dce5 2140
000002c0: 736a ae3d 7d34 56bd 6d2b 60bf 1863 20be
000002d0: 1d38 06c0 bdcc 993e 60d8 603c 4cc3 2c3d
000002e0: 2eec dbbc 1c3e a7be fb39 92be fa0d 27be
000002f0: e323 0140 2a2c a8be 76d4 2b40 c281 e6be
00000300: 7d78 febe 28fd 46be 9180 e73d b080 423e
00000310: aa8c 923e 3564 b73e 720f 3e3f b4f8 d93d
00000320: 1ef7 b2be d82a e13e f303 64bf 2885 0fbe
00000330: c432 2f3f 7d86 37be 4839 0f3e d7a4 1d3e
00000340: 2452 61be 0f40 623f df58 a9be c4ac 203e
00000350: c291 55bd a9d3 a6bf fcd7 4abe 4ad6 a03d
00000360: 8a78 813e b63b aabe b9b4 e4bd 9308 3c3e
00000370: b129 6cbe 00fd 903e c639 af3e deaa 65be
00000380: 5468 033f ec84 9e3d daee 45be 2c50 823f
00000390: e727 0a3e 18f6 f23b c289 14c0 f840 473c
000003a0: a36a 39c0 70b1 2dbe d163 0d3f 417b 34bf
000003b0: c017 793d b234 68be c4f3 19bd 22de 2140
000003c0: d09f ae3d c026 57bd 5d68 60bf 3e0e 22be
000003d0: c93c 06c0 fae4 993e e8c6 733c 8027 2c3d
000003e0: 06be d4bc 5afe a6be 2883 92be bfaf 26be
000003f0: 9928 0140 02ec a8be 8ce1 2b40 40d2 e6be
-0.49496105 -0.19188417 0.11214979 0.20061305 0.28618085 0.35362795 0.74244964 0.10771483
-0.34908527 0.4401688 -0.89040774 -0.15647714 0.6846895 -0.17953968 0.13981333 0.14719331
-0.2191548 0.8830071 -0.32974702 0.16866411 -0.05091025 -1.3021861 -0.19904116 0.0774432
0.25164184 -0.33670533 -0.111600354 0.18318056 -0.22864136 0.28673723 0.34105444 -0.22337371
0.5088442 0.07928248 -0.19237188 1.0188302 0.14401469 0.00043943198 -2.3216524 0.011815801
-2.898418 -0.16763033 0.5514226 -0.7058465 0.060350083 -0.2327385 -0.036408745 2.5305543
0.08493278 -0.051839 -0.8739278 -0.15348017 -2.096536 0.30005884 0.011417374 0.042488508
-0.028581036 -0.32765347 -0.284537 -0.16384104 2.0172544 -0.3256431 2.6830466 -0.4490838
-0.49561167 -0.19268547 0.11241533 0.1970931 0.28617594 0.35510164 0.7424203 0.10729955
-0.34920096 0.440024 -0.8904995 -0.15108703 0.6845586 -0.17943178 0.13983679 0.14944594
-0.21947065 0.8832432 -0.33007333 0.16475461 -0.051323466 -1.3025631 -0.1987186 0.0777711
0.25204074 -0.33532035 -0.11159396 0.18330935 -0.22928631 0.28555945 0.34139854 -0.2236501
0.510309 0.07863702 -0.19267367 1.0185866 0.14102809 0.0027172463 -2.3214276 0.011919178
-2.8979795 -0.16828148 0.55168444 -0.70555 0.060494967 -0.2307671 -0.036790177 2.530113
0.085053116 -0.052065834 -0.87477094 -0.15502802 -2.0968652 0.30021697 0.012563974 0.04233209
-0.027720368 -0.3271464 -0.28505564 -0.16349295 2.0175314 -0.32702777 2.6839712 -0.44962615
-0.49629873 -0.19349875 0.11271255 0.19352105 0.2861914 0.35662767 0.74241054 0.106869236
-0.34935278 0.4398936 -0.8905923 -0.14561966 0.6844503 -0.17932616 0.13985452 0.15172061
-0.21976727 0.883505 -0.33041227 0.16081558 -0.05173695 -1.3029467 -0.19839996 0.078136116
0.2524536 -0.333908 -0.111617304 0.18345883 -0.22995158 0.2843673 0.34179422 -0.22395556
0.51180416 0.078006744 -0.1929839 1.0183328 0.13798232 0.005043068 -2.3211792 0.012035593
-2.8975477 -0.16894875 0.5519788 -0.7052679 0.06065011 -0.22876662 -0.037184965 2.5296545
0.08516397 -0.05229615 -0.8756626 -0.15662801 -2.097175 0.30039015 0.013723463 0.042178437
-0.026846018 -0.32664573 -0.2855986 -0.16313925 2.0178154 -0.32846195 2.6848426 -0.45020872
-0.497013 -0.19432509 0.11303819 0.18994403 0.28622943 0.3581864 0.7424232 0.106431395
-0.3495416 0.43978 -0.89068526 -0.14015639 0.6843684 -0.17922397 0.13986695 0.15394913
-0.2200399 0.88378996 -0.33075616 0.15690905 -0.05214096 -1.3033344 -0.19808954 0.078533724
0.25287277 -0.3324868 -0.111672826 0.18362646 -0.23062779 0.28318024 0.34223765 -0.22428462
0.5133107 0.077401966 -0.19329396 1.0180717 0.13491784 0.0074145906 -2.320908 0.012161486
-2.8971336 -0.16962218 0.5523043 -0.7050057 0.060813665 -0.22676352 -0.03758599 2.529183
0.085265756 -0.05252719 -0.87659246 -0.15825745 -2.09746 0.30057508 0.014878966 0.042029858
-0.025969516 -0.3261593 -0.2861569 -0.1627798 2.018103 -0.3299256 2.6856413 -0.45082283
