src/visualize/sequence_output/LastFM_BSARec/2layer_4iter.npy (npy, 844928 bytes, 1 tensors)

array f4 [66, 50, 64]
-0.12003882 1.1253399 -0.68213016 -0.0513997 -0.28819183 0.573017 0.24994421 1.0858408
0.91708827 -0.41995838 0.23491794 -2.1951716 -1.5926939 0.27635184 1.0528343 -1.5968709
0.35309178 0.3657326 1.4871591 2.3364394 -0.1418479 -0.14794853 1.5923957 -0.092558846
-0.53767216 -0.4730619 1.020501 -0.87467504 -0.18080796 -0.44254428 0.68588066 0.8627589
1.7885714 -3.8000364 1.1494732 0.23828506 -0.050605696 -1.3034201 1.0348425 1.534007
-1.0223496 0.75541747 -1.0001087 0.92206585 0.31063718 -0.5280184 -0.25723186 -0.02760686
0.07156859 -1.8853157 -0.33489594 -1.0456125 1.4403872 0.5202969 -0.312416 -0.71618867
0.19910379 -0.508466 -0.88604283 0.110312566 -0.7512417 0.491376 -1.0395567 0.5799775
-0.114157125 1.1496938 -0.6854186 -0.05477538 -0.29661188 0.5727695 0.24528137 1.086407
0.9157828 -0.4275748 0.23980576 -2.1420069 -1.5957133 0.2726086 1.0560297 -1.6116866
0.35634345 0.363397 1.4852277 2.3871377 -0.14522004 -0.15603793 1.5997977 -0.09318398
-0.5350239 -0.47243258 1.0203862 -0.8711724 -0.1819575 -0.43663165 0.68526024 0.8649615
1.7748156 -3.801113 1.146873 0.23289089 -0.06384471 -1.3003162 1.0362084 1.5043426
-1.0200566 0.7543857 -1.0093675 0.91925156 0.30432025 -0.50924194 -0.24895054 -0.032230332
0.0727497 -1.8814474 -0.33610773 -1.0493009 1.4386599 0.5172047 -0.31294098 -0.7261573
0.18767896 -0.51407915 -0.8837877 0.11259282 -0.75114083 0.48971617 -1.0411341 0.57683337
-0.11996989 1.1398727 -0.68789285 -0.07659995 -0.29527768 0.5742134 0.24521399 1.0804164
0.9163381 -0.43333498 0.249993 -2.0899036 -1.5929505 0.28231654 1.0468733 -1.548337
0.35132697 0.35793704 1.4900855 2.388531 -0.14435911 -0.1716135 1.6116116 -0.092568114
-0.5336205 -0.45966053 1.0273004 -0.8828977 -0.19574173 -0.43679553 0.68115944 0.8742176
1.7778864 -3.812827 1.155051 0.22772801 -0.0621272 -1.3015248 1.0340211 1.5373502
-1.0348161 0.7525351 -1.0158955 0.9238796 0.30251798 -0.49362993 -0.23668382 -0.037452355
0.06644597 -1.8982962 -0.3440432 -1.0616035 1.4360787 0.5160503 -0.32900077 -0.7251204
0.18884236 -0.52143186 -0.8871913 0.11080967 -0.76188874 0.48716733 -1.0516148 0.5729886
-0.12108053 1.143957 -0.69287664 -0.07235257 -0.29987288 0.5870188 0.24406213 1.0796077
0.9131948 -0.44343528 0.2589271 -2.030457 -1.5960275 0.28753042 1.0565063 -1.5818561
0.35269952 0.35422164 1.4921643 2.391273 -0.14064287 -0.18178974 1.627805 -0.09185363
-0.5317516 -0.4608626 1.0283439 -0.89005405 -0.20402998 -0.42123076 0.67508537 0.87760997
1.7709022 -3.8213763 1.154862 0.22247873 -0.054879848 -1.270182 1.0324831 1.4998409
-1.0424641 0.7531333 -1.0255213 0.9236242 0.30082908 -0.48260278 -0.2212352 -0.041924946
0.06625054 -1.9079541 -0.34489846 -1.0729085 1.4391872 0.51233447 -0.3254894 -0.718941
0.19893609 -0.5252808 -0.8896173 0.11457087 -0.7752938 0.48797467 -1.0596824 0.5689519
00000000: ead6 f5bd 230b 903f 15a0 2ebf 7e88 52bd
00000010: e18d 93be 3eb1 123f 60f1 7f3e d5fc 8a3f
00000020: 4cc6 6a3f c904 d7be 548e 703e b17d 0cc0
00000030: 65dd cbbf fd7d 8d3e 46c3 863f 4466 ccbf
00000040: 72c8 b43e 4e41 bb3e 3b5b be3f 3988 1540
00000050: 9340 11be d27f 17be 9fd3 cb3f 7e8f bdbd
00000060: e2a4 09bf 2b35 f2be c79f 823f b4ea 5fbf
00000070: b925 39be 2a95 e2be e095 2f3f c4dd 5c3f
00000080: e8ef e43f cc33 73c0 f021 933f 0001 743e
00000090: eb47 4fbd 78d6 a6bf b875 843f 575a c43f
000000a0: 5adc 82bf 0a63 413f 9003 80bf 820c 6c3f
000000b0: d60b 9f3e 372c 07bf e5b3 83be c827 e2bc
000000c0: 8e92 923d 0652 f1bf 7b77 abbe a1d6 85bf
000000d0: 9c5e b83f 2d32 053f fdf4 9fbe 2458 37bf
000000e0: dde1 4b3e d42a 02bf b4d3 62bf 8eeb e13d
000000f0: 6051 40bf a395 fb3e 3210 85bf 6879 143f
00000100: 36cb e9bd 2b29 933f 9877 2fbf 265c 60bd
00000110: 83dd 97be 06a1 123f 0a2b 7b3e 620f 8b3f
00000120: be70 6a3f 16eb dabe a48f 753e a416 09c0
00000130: 5540 ccbf 5b93 8b3e fb2b 873f bf4b cebf
00000140: a672 b63e 2c0f ba3e f11b be3f ddc6 1840
00000150: 90b4 14be 68c8 1fbe 2cc6 cc3f 3ed7 bebd
00000160: 54f7 08bf afe2 f1be 049c 823f 2805 5fbf
00000170: 1153 3abe 2f8e dfbe 376d 2f3f 1e6e 5d3f
00000180: 282d e33f 6f45 73c0 bccc 923f f37a 6e3e
00000190: 04c1 82bd c370 a6bf 7aa2 843f 4c8e c03f
000001a0: 3791 82bf 6c1f 413f f432 81bf 1254 6b3f
000001b0: ddcf 9b3e ae5d 02bf e4ec 7ebe f403 04bd
000001c0: cbfd 943d 45d3 f0bf 5016 acbe 7e4f 86bf
000001d0: 0226 b83f 8767 043f cd39 a0be 72e5 39bf
000001e0: ea2e 403e b19a 03bf e93f 62bf 1097 e63d
000001f0: c44a 40bf 14bc fa3e e243 85bf 5aab 133f
00000200: c6b2 f5bd 59e7 913f bf19 30bf 6fe0 9cbd
00000210: a32e 97be a6ff 123f 6019 7b3e 164b 8a3f
00000220: 2295 6a3f 15de ddbe 2afe 7f3e fbc0 05c0
00000230: cde5 cbbf cb8b 903e f2ff 853f e82f c6bf
00000240: 21e1 b33e 8643 b73e 1fbb be3f b1dd 1840
00000250: e0d2 13be 73bb 2fbe 4a49 ce3f 5a94 bdbd
00000260: 5a9b 08bf a058 ebbe 947e 833f 9505 62bf
00000270: 8570 48be aaa3 dfbe 7760 2e3f bacc 5f3f
00000280: c891 e33f 5c05 74c0 b6d8 933f 8831 693e
00000290: 1779 7ebd 5d98 a6bf ce5a 843f e4c7 c43f
000002a0: db74 84bf 24a6 403f dd08 82bf 6083 6c3f
000002b0: a3e3 9a3e 10bd fcbe 3e5d 72be a467 19bd
000002c0: d314 883d 5ffb f2bf 6e26 b0be a0e2 87bf
000002d0: 6dd1 b73f df1b 043f ca72 a8be 7ea1 39bf
000002e0: e45f 413e 8f7c 05bf f81e 63bf 2ef0 e23d
000002f0: 240b 43bf ff6d f93e 509b 86bf 62af 123f
00000300: 12f9 f7bd 2f6d 923f 5d60 31bf 962d 94bd
00000310: f088 99be dd46 163f 6ceb 793e 9630 8a3f
00000320: 22c7 693f f309 e3be 1892 843e 02f3 01c0
00000330: a14a ccbf 3037 933e 993b 873f 437a cabf
00000340: 0895 b43e 8a5c b53e 3dff be3f 9e0a 1940
00000350: af04 10be 1727 3abe ea5b d03f c21d bcbd
00000360: df20 08bf 2ff6 ebbe c6a0 833f 95da 63bf
00000370: 3ced 50be 8fab d7be 65d2 2c3f 0cab 603f
00000380: ecac e23f 6e91 74c0 85d2 933f 77d1 633e
00000390: b1c9 60bd 5395 a2bf 6828 843f c9fa bf3f
000003a0: 776f 85bf 58cd 403f 4844 83bf a372 6c3f
000003b0: 4506 9a3e b617 f7be 7b8b 62be 7eb9 2bbd
000003c0: 5dae 873d d737 f4bf 8896 b0be 1155 89bf
000003d0: 4937 b83f 5a28 033f 8ca6 a6be 840c 38bf
000003e0: e7b5 4b3e cd78 06bf f6bd 63bf 22a4 ea3d
000003f0: a879 46bf d1d7 f93e aca3 87bf d5a6 113f
