src/visualize/sequence_output/LastFM_BSARec/3layer_4iter.npy (npy, 844928 bytes, 1 tensors)

array f4 [66, 50, 64]
00000000: b242 cdbf 0a42 b23f 2949 27bf dfc4 823f
00000010: f0cb 333f a66c 87be 2d11 8f3e 41b4 273f
00000020: ba7c 873f eb32 833e 5ad5 c53e ed87 82c0
00000030: 1dcb e03e 8274 eb3e 8076 7f3f adda d9bf
00000040: eb28 f2be 9d61 01bd 6fc2 5b3f 91fd 3640
00000050: c175 7fbf d451 85bf 9ada 2f3f 93bb bebe
00000060: c33b 32bf 0cf0 3bbf fca2 533d 943e b5be
00000070: 9521 033f 4c0f 6f3f 7b6e 7f3e cbe2 d7be
00000080: b9fd 563f 260b 2fbf eed4 46be 061a 92be
00000090: 69ca 653f 4e95 98bf 4f28 5e3f 69d7 fb3f
000000a0: 427a 91be fc7b 94bd 74d3 2a3f bbda 3a3f
000000b0: cc39 763d a1d2 3bbf 22b9 26bd cde5 f63f
000000c0: 29a9 513d 0c59 4c3c 4583 e0bf 3f88 553d
000000d0: 5a83 99bf a711 11bf 2990 a2bf 820f ad3e
000000e0: 571c 1c3f 221d 4dbf cf48 40bf 21b7 14bf
000000f0: b2e3 393e 00bc ad3f 6b66 963d e83b 6abe
00000100: 2884 d2bf 6ebb ae3f c5c8 30bf 746e 863f
00000110: 96c3 253f 58f0 94be f717 913e 84a5 213f
00000120: ff66 893f b668 893e f0fa c53e f9cc 75c0
00000130: 60e5 023f a850 db3e e790 733f 3a87 c5bf
00000140: d4da 04bf 4edc 2a3d d29a 5d3f e3ab 3840
00000150: 5677 87bf e986 8bbf ecea 2c3f 30a4 cdbe
00000160: 1a34 47bf 886c 48bf 7263 973c 4899 b0be
00000170: b4fe 023f c752 803f 119d 8b3e 33bc eebe
00000180: 9fc9 593f 51af 32bf b256 5bbe 00e0 9cbe
00000190: ff55 6c3f 0163 83bf 59b1 603f 0bc2 0240
000001a0: 1804 9ebe b256 fcbd 7888 383f 5186 323f
000001b0: 4d6b f03d 34a3 2fbf f3f0 bcbd eba3 ff3f
000001c0: f0aa cebc 5a4c 8b3d 7a0d eabf a848 9f3b
000001d0: 5bcb a2bf ddb6 14bf ccee 99bf d6b7 ac3e
000001e0: ad1a 193f bf04 61bf 793b 52bf 21bc 24bf
000001f0: 0520 823e 0c7b b53f 21bd 353d 3e38 6cbe
00000200: eee6 d8bf 341c a73f 1015 3cbf 80a2 883f
00000210: 79d9 153f 4661 a1be 2443 933e c022 193f
00000220: 469e 8a3f 9c69 913e 517a c43e 06b7 64c0
00000230: 403f 183f c6ae cb3e 7852 643f 6be8 a4bf
00000240: d5b3 11bf 1a65 fb3d c441 603f 5ca3 3640
00000250: 6995 8fbf 1496 92bf f42c 293f 5c32 ddbe
00000260: a0c5 5fbf 89c7 53bf 306f aabc fa97 adbe
00000270: b227 013f e928 893f a162 983e b754 03bf
00000280: 3440 5f3f c331 36bf a5d7 64be a0a6 a7be
00000290: 2c2d 753f c442 57bf 8bd2 613f 259e 0b40
000002a0: bfbd adbe 2899 36be 8869 483f 1c67 273f
000002b0: 616f 403e f234 22bf 1ce5 17be 6738 0440
000002c0: 04be edbd 3a0e f33d 5eb1 f3bf c81a 4fbd
000002d0: b5e5 acbf 3836 1abf f030 90bf d7ec ab3e
000002e0: 4f38 163f 417f 77bf 5bab 67bf f70e 35bf
000002f0: cc5a a83e 5bd3 bd3f fc9d 313c a40c 6ebe
00000300: 593f ddbf 0a3b 9c3f 1f6c 45bf afc7 8d3f
00000310: 4bab 003f 94a2 b0be b6f3 8d3e 0791 0a3f
00000320: 6216 8b3f 888e 993e ae4e c53e 0a94 4dc0
00000330: 4f7d 333f 1465 b53e 1c25 4f3f e500 8abf
00000340: 04e7 23bf 134d 6f3e 3334 613f 7a4e 3440
00000350: 8f34 97bf 4d47 98bf d264 1f3f ffb3 f1be
00000360: 219f 7cbf 823d 61bf 4fb4 a2bd bd3a a2be
00000370: 5037 003f 359f 923f cfb1 a33e 54a3 12bf
00000380: 0453 603f 9480 31bf 369e 88be 22c4 b4be
00000390: c04c 7d3f e9cd 13bf dcb5 653f 4e14 1240
000003a0: c7c1 bcbe da2e 7fbe a222 5b3f 69b9 173f
000003b0: 3208 993e 85c5 10bf 6214 58be 34fd 0940
000003c0: 438c 6cbe e6ea 363e b7b4 febf aa71 f1bd
000003d0: 9a9e b8bf ef6d 1ebf 5171 7fbf f49b a33e
000003e0: 039f 183f 100d 88bf 8133 80bf d30f 4abf
000003f0: 76a5 e23e 4c50 c53f 56db b9bc 9667 68be
-1.6035979 1.3926404 -0.6534601 1.021633 0.7023306 -0.2645008 0.27942792 0.6550942
1.0584939 0.25624785 0.38639337 -4.0790925 0.43904963 0.45987326 0.9979019 -1.701986
-0.47296843 -0.031587232 0.8584356 2.8592265 -0.99789053 -1.0415597 0.68692935 -0.37252483
-0.6962244 -0.7341316 0.051669106 -0.35399306 0.5122312 0.93382716 0.24944489 -0.42165217
0.839809 -0.68376386 -0.19417164 -0.2853548 0.8976198 -1.1920564 0.86780256 1.9675113
-0.28413588 -0.07250211 0.667289 0.72990006 0.060113713 -0.7336827 -0.0407039 1.928888
0.051186714 0.012472402 -1.754006 0.052131888 -1.199321 -0.5666756 -1.2700244 0.33800894
0.60980743 -0.8012258 -0.751111 -0.5809193 0.18153265 1.3572998 0.073437534 -0.22874415
-1.6446581 1.3650949 -0.6905635 1.0502458 0.64751565 -0.29089618 0.28338596 0.6314318
1.0734557 0.268377 0.38668013 -3.8406355 0.5113125 0.42834973 0.9514298 -1.5431893
-0.51896405 0.041714005 0.8656436 2.8854911 -1.0583293 -1.0900546 0.6754596 -0.40164328
-0.77813876 -0.78290606 0.018480036 -0.34491944 0.51169896 1.0025262 0.2726827 -0.4662796
0.85073274 -0.6979876 -0.2141979 -0.30639648 0.9231872 -1.0264589 0.8777061 2.0430934
-0.30862498 -0.12321223 0.72083235 0.697362 0.11739216 -0.68608403 -0.09225645 1.9971899
-0.025227994 0.06801672 -1.8285363 0.004860956 -1.2718309 -0.5809153 -1.2026 0.33734006
0.5980633 -0.87897867 -0.82122 -0.6434956 0.25415054 1.4178176 0.04436982 -0.2306833
-1.6945474 1.3055482 -0.7346964 1.0674591 0.5853496 -0.31519526 0.28762162 0.5981865
1.0829551 0.28400886 0.3837457 -3.5736709 0.5947151 0.3978178 0.8918834 -1.2883428
-0.56915027 0.12275143 0.8760035 2.8537207 -1.1217471 -1.145205 0.6608422 -0.43202484
-0.87410927 -0.8272634 -0.020804971 -0.3390501 0.50451195 1.071561 0.29762748 -0.5130114
0.8720734 -0.7116968 -0.22347887 -0.32744312 0.9577205 -0.8408625 0.8821189 2.1815274
-0.33933827 -0.17831862 0.7828603 0.6539171 0.18792488 -0.6336204 -0.14833492 2.0659425
-0.11608508 0.11867948 -1.9038503 -0.05056265 -1.3507601 -0.6023898 -1.1264935 0.33579132
0.5867967 -0.9667855 -0.9049584 -0.7072596 0.32881773 1.4830126 0.010840889 -0.2324701
-1.7284957 1.2205517 -0.77118105 1.1076564 0.5026137 -0.34499037 0.27725 0.54127544
1.0866206 0.29991555 0.3853659 -3.2121606 0.7011308 0.3542868 0.80916 -1.0781523
-0.64024377 0.23369245 0.87970275 2.8172898 -1.1812915 -1.1896759 0.62263215 -0.4720764
-0.9868031 -0.8798448 -0.079445474 -0.3168544 0.500844 1.1454836 0.31971595 -0.5728047
0.8762667 -0.6933682 -0.26683205 -0.35305887 0.98945236 -0.5773607 0.8973062 2.2824893
-0.3686659 -0.24920216 0.8559972 0.5926729 0.29889065 -0.5655139 -0.21101525 2.1560793
-0.2310038 0.17863044 -1.98989 -0.11789258 -1.4423401 -0.61886495 -0.9978228 0.3195492
0.5961763 -1.0628986 -1.0015718 -0.78930396 0.44266862 1.541513 -0.022687595 -0.22695765
