src/visualize/sequence_output/LastFM_BSARec/6layer_4iter.npy (npy, 844928 bytes, 1 tensors)

array f4 [66, 50, 64]
000000 34 22 ad 3e 4d 33 d9 bf 32 4c 34 3f 9e b0 55 3f
       0.33815157 -1.6968781 0.70428765 0.8347262
000010 1b db d9 3e e8 41 b5 3f b7 65 e8 3f dc 9c 1f be
       0.42549977 1.4160738 1.8156041 -0.15587181
000020 f0 31 ce 3f 62 64 8c 3e 46 8e 8b bf 85 62 bf be
       1.610899 0.27420336 -1.0902793 -0.37379852
000030 82 62 01 be b2 d6 04 3f a6 ac 7b 3f e8 70 f6 bf
       -0.12635234 0.518901 0.98310316 -1.9253206
000040 6a ff 2e bf 43 7a ac 3f 8c 04 8c 3e 4a 59 24 3f
       -0.6835848 1.3474811 0.2734722 0.64198744
000050 94 f4 83 3f b3 58 95 bf 71 85 78 be 0e a1 64 3e
       1.0309014 -1.1667694 -0.24269654 0.22327062
000060 29 ee 0a 3e b3 a0 05 c0 94 be f3 be 29 80 71 3f
       0.13567413 -2.0879333 -0.47606337 0.9433618
000070 26 10 5a be fd 75 55 3f 0d e9 9f be 61 0f aa 3e
       -0.21295223 0.8338316 -0.3123249 0.33214858
000080 0a 4d b7 bf 2f c2 2e 3f 88 29 29 3f 5b 0b 29 bf
       -1.4320385 0.6826505 0.66078997 -0.6603295
000090 b8 c3 8c be 06 67 3d c0 e8 d9 60 be 2e 01 b1 3f
       -0.27493072 -2.959413 -0.21958125 1.3828485
0000a0 88 a3 69 be 2b 36 3f 3f e0 c6 86 be 78 38 fe bf
       -0.22816288 0.7469203 -0.26323605 -1.9860983
0000b0 1c 59 68 be c2 f7 05 bf ea 27 e2 be d5 d9 6e 3d
       -0.22690243 -0.52331173 -0.44171077 0.05831321
0000c0 9e 1e d8 be 0a a9 bf 3f d0 00 8a 3b 5a 04 b2 bf
       -0.4221086 1.4973462 0.0042115226 -1.3907578
0000d0 99 38 67 3f 6e 83 cf 3d e2 a5 06 c0 5f 0f 4b 3f
       0.90320736 0.1013249 -2.1038747 0.7932033
0000e0 15 16 98 be 71 30 f4 3f 8c d0 d7 be cd c0 ac 3f
       -0.29704347 1.9077283 -0.42151296 1.3496338
0000f0 44 40 d9 be 0a 5f 3b 3e 46 e4 4f 3f a1 56 98 bf
       -0.42431843 0.18297973 0.8120769 -1.1901437
000100 74 7b a8 3e ea ae d7 bf c9 07 37 3f 39 0a 56 3f
       0.32906687 -1.6850255 0.71496254 0.8360935
000110 bb 36 d1 3e 75 30 b4 3f 5b cf eb 3f 96 22 1e be
       0.4086207 1.4077288 1.8422655 -0.15442881
000120 97 aa d0 3f 5e 94 7b 3e 05 68 8b bf ff 57 b9 be
       1.630206 0.24568316 -1.0891119 -0.36199948
000130 25 f3 14 be 1a 69 04 3f 8f 5d 75 3f 57 35 f8 bf
       -0.14545877 0.5172287 0.95845884 -1.9391278
000140 f1 33 30 bf 51 88 aa 3f 10 e8 8f 3e 65 4a 30 3f
       -0.68829256 1.332285 0.28106737 0.6886352
000150 a8 d6 84 3f c0 fa 96 bf ee 07 80 be 66 1b 69 3e
       1.0378008 -1.1795273 -0.2500605 0.22764358
000160 37 09 fe 3d 63 9a 06 c0 0c 0e fa be 8c 2b 70 3f
       0.12404101 -2.103173 -0.48838842 0.9381645
000170 2d 90 4a be 3c ed 54 3f 42 da 9e be 9e 4e b4 3e
       -0.19781561 0.8317449 -0.31025892 0.3521623
000180 e3 95 b7 bf 6f 96 2c 3f a7 8e 27 3f 8f 46 24 bf
       -1.4342617 0.67417043 0.65452045 -0.64170164
000190 43 4c 89 be 71 c4 3a c0 f3 69 58 be 65 06 b3 3f
       -0.26815996 -2.9182398 -0.21134166 1.3986326
0001a0 56 7b 75 be e1 3f 3e 3f 71 47 92 be fe aa fc bf
       -0.2397283 0.7431622 -0.2857013 -1.9739683
0001b0 e3 b3 70 be df 16 04 bf 96 a7 e6 be b6 94 94 3d
       -0.23506121 -0.515974 -0.45049733 0.07254927
0001c0 20 25 db be a7 5d bf 3f 18 15 cb 3b 05 eb b2 bf
       -0.42801762 1.4950455 0.006197583 -1.3977972
0001d0 b9 3c 66 3f d2 3e bc 3d 7f d5 06 c0 24 34 4d 3f
       0.89936405 0.091916695 -2.1067808 0.80157685
0001e0 a4 7d 97 be 18 59 f4 3f 83 a2 da be a2 cd ad 3f
       -0.29588044 1.9089689 -0.42702112 1.3578379
0001f0 f7 14 da be 80 c6 3d 3e 69 5b 4b 3f 8e 88 97 bf
       -0.4259412 0.18532753 0.79436356 -1.1838548
000200 0f b9 a3 3e 7e 4d d5 bf 5d db 39 3f 7b 47 57 3f
       0.31977126 -1.6664274 0.72600347 0.84093446
000210 9b 97 c7 3e cb fc b2 3f 99 b5 ef 3f 58 6f 1d be
       0.38982853 1.3983396 1.8727294 -0.15374506
000220 d3 74 d3 3f 0d e9 59 3e 33 28 8b bf 39 2e b5 be
       1.6520027 0.21280308 -1.0871643 -0.35386828
000230 be db 29 be cd 91 04 3f c9 87 6e 3f 38 ab f8 bf
       -0.16587731 0.51784974 0.9317594 -1.9427252
000240 e9 81 31 bf 73 4d a8 3f 16 5a 95 3e 9e 68 3b 3f
       -0.6933885 1.3148636 0.29170293 0.7320651
000250 21 bc 85 3f 44 cf 98 bf f6 60 84 be 84 4d 6e 3e
       1.0448037 -1.1938252 -0.25855225 0.23271757
000260 16 24 e4 3d 90 8c 07 c0 e6 83 00 bf 60 37 6f 3f
       0.11139695 -2.1179543 -0.5020126 0.9344387
000270 90 14 39 be ed 57 54 3f 8b be 9d be 2e 7e bf 3e
       -0.1807425 0.82946664 -0.30809435 0.37400955
000280 97 b1 b7 bf cc 21 2a 3f 54 8e 25 3f c5 d1 1e bf
       -1.4351071 0.6645782 0.646703 -0.6203883
000290 10 23 85 be 1c 6b 38 c0 cd 84 4e be e9 62 b5 3f
       -0.26003313 -2.8815374 -0.20167847 1.417081
0002a0 b7 41 81 be 37 0d 3d 3f 98 27 9f be bc fd fa bf
       -0.2524545 0.7384829 -0.31084895 -1.9608684
0002b0 7f 7d 79 be 3c 9a 02 bf af 5c eb be 70 2e b7 3d
       -0.24364279 -0.5101659 -0.4596915 0.08944404
0002c0 64 6a df be c5 82 be 3f 90 e4 0e 3c e2 cf b3 bf
       -0.43635857 1.4883658 0.008721486 -1.4047816
0002d0 b3 f8 64 3f 7e db a5 3d 70 4d 07 c0 aa 13 4f 3f
       0.89441985 0.080985054 -2.1141014 0.8088938
0002e0 b6 a8 95 be 7b 67 f4 3f 74 87 dd be d3 fe ae 3f
       -0.2923028 1.909408 -0.43267405 1.3671516
0002f0 e5 e8 da be 09 bd 3f 3e 39 99 46 3f 09 ad 96 bf
       -0.4275581 0.18724455 0.7757755 -1.1771556
000300 fc 41 9d 3e ef b8 d3 bf e0 10 3d 3f 54 2d 59 3f
       0.30714405 -1.6540812 0.73853874 0.8483479
000310 c4 d3 be 3e b6 fa b1 3f 0b 7f f3 3f 26 34 1b be
       0.3727094 1.3904636 1.9023145 -0.15156612
000320 d9 ce d5 3f e1 f7 3a 3e fc 0f 8b bf 1f 61 af be
       1.670375 0.18258621 -1.0864253 -0.34253785
000330 f2 3f 3b be 90 a1 04 3f 01 3c 69 3f 06 e3 fa bf
       -0.18286112 0.51809025 0.91107184 -1.9600532
000340 c1 81 33 bf e7 0d a6 3f 44 e9 9b 3e 7b be 43 3f
       -0.70119864 1.2972993 0.30451405 0.76462525
000350 5d 47 86 3f 3b ba 9a bf 5e 80 89 be b6 e7 71 3e
       1.0490528 -1.2088083 -0.2685575 0.23623547
000360 77 e1 c7 3d 00 98 08 c0 0f 63 03 bf 04 9e 6e 3f
       0.09759801 -2.1342773 -0.51323026 0.9320986
000370 64 ea 29 be 16 71 53 3f 69 08 9b be 32 d6 ca 3e
       -0.16593319 0.8259443 -0.30279854 0.39616543
000380 3b 38 b8 bf 9f 46 28 3f 8f 74 23 3f c6 b5 1a bf
       -1.439216 0.6573276 0.6384973 -0.60433614
000390 17 b0 80 be 5e 52 35 c0 e4 0f 43 be a7 3b b7 3f
       -0.25134346 -2.8331523 -0.1904903 1.431508
0003a0 d8 5f 86 be 83 3a 3c 3f 45 98 ab be fa 10 f9 bf
       -0.26244998 0.7352678 -0.3351461 -1.9458306
0003b0 14 5d 7e be 08 29 00 bf fb ef ed be 32 cb db 3d
       -0.24840194 -0.5006261 -0.46472153 0.10732116
0003c0 19 f6 e4 be 8c ac bd 3f 28 0a 2b 3c f8 c3 b4 bf
       -0.44719008 1.4818282 0.010439433 -1.4122305
0003d0 61 ac 62 3f c7 62 8f 3d 38 94 07 c0 be f4 4f 3f
       0.8854428 0.07001262 -2.1184216 0.8123282
0003e0 1c 87 92 be c6 3d f4 3f fe 74 e0 be e7 60 b0 3f
       -0.28618705 1.9081352 -0.43839258 1.3779572
0003f0 b5 3f dc be 70 d9 42 3e ce d2 42 3f 2f 88 95 bf
       -0.43017355 0.19028258 0.7610291 -1.1682185
