src/visualize/sequence_output/LastFM_BSARec/7layer_4iter.npy (npy, 844928 bytes, 1 tensors)

array f4 [66, 50, 64]
00000000: 30ae 183f c0f9 a3bf 8de7 b2be beaa a83d
00000010: afa1 9f3f db9b 8dbe 6a42 cf3f 75ec 873f
00000020: 26fa 0040 fa67 0740 e742 3b3e b0d6 b1bf
00000030: 1fc0 923e ad41 49bd b611 063f 52c9 82bf
00000040: 42e8 96be c872 e73e b20c c0be fb99 e93f
00000050: d52c 77bf 5498 17bf 1c6b 2abf e5ec dbbf
00000060: f0b9 9b3f 5f6f 90be 0484 afbd 341b 0bbf
00000070: 7be3 4e3f 6565 103f cb71 bebe d303 2b3f
00000080: 3ba2 d23e d34d 013f c4f7 b33e 8e3d 44bc
00000090: a581 a3be f0c7 80c0 b3c6 ff3e 56c6 9abf
000000a0: b87f 953d 4fe3 5ebf 36ba 1abf ed30 f7bf
000000b0: 01a4 10bf 0764 abbf 9c7b 6ebf d7dc 16be
000000c0: c4dd 1140 b17c b9be 00ac 90be c445 fa3e
000000d0: ec53 2d3f 7cf4 0b3c 7663 f0bd 127d 2a3e
000000e0: e604 9fbe e917 873f 5e46 603c 2d3c 873f
000000f0: 22f6 44be 624e d9be c2a5 8c3f cd1c 4bbf
00000100: 42db 163f 8500 a3bf 7768 b3be 18ce 3f3d
00000110: 6cdc a03f c333 8bbe 6983 d03f e7e9 873f
00000120: af50 0140 4145 0740 4451 3b3e 012f b1bf
00000130: 74e9 943e 26c2 53bd 3932 073f fe12 87bf
00000140: ecf3 97be 4ab5 e33e f76d bfbe d0e9 f53f
00000150: f6f8 79bf 822a 18bf 289a 2cbf ae25 dbbf
00000160: c16c 9a3f f6cf 98be c5fa 9dbd 5ab3 09bf
00000170: 8538 4d3f cf95 0a3f 0bf9 bebe 70ef 2d3f
00000180: 7893 d03e 6ecd 013f 7cdb b13e b2ca 33bc
00000190: a09e a6be 46dd 7dc0 c373 013f 48bc 98bf
000001a0: dc9c a33d 0195 5fbf 5e25 1ebf 4b5c f6bf
000001b0: 65e6 0fbf 2fcf aebf 5acf 6ebf 0cca 14be
000001c0: ce56 1140 c6b7 bdbe ab2d 8ebe d479 f33e
000001d0: 16f6 2a3f b460 9b3c 952a 00be 5ea1 323e
000001e0: 3d63 a1be 2d4c 873f f2d0 453c 954f 883f
000001f0: a852 4bbe 626e dbbe 75b5 8c3f 16f0 4cbf
00000200: 98e2 143f 3d4f a1bf d1bc b3be 1477 393c
00000210: d818 a23f 7792 88be 6cd1 d13f b3cd 873f
00000220: 1aa3 0140 ef08 0740 a37b 3b3e 98d4 b0bf
00000230: 5300 973e 8dcd 5bbd 6c6f 083f 9b76 8abf
00000240: b0fd 98be 33a4 df3e 050a bebe e3e7 0040
00000250: 0fc9 7cbf a2a1 18bf ffa6 2ebf 852f dabf
00000260: b809 993f 1786 a1be 1f6c 89bd 7f13 08bf
00000270: 5052 4b3f 6678 043f 5e4f bfbe 5cfa 303f
00000280: 9b6e ce3e ab2f 023f 0468 af3e 6c46 1ebc
00000290: 5c89 a9be 0c72 7ac0 ae0e 033f 828a 96bf
000002a0: ff5b b13d c313 60bf 058f 21bf e261 f5bf
000002b0: dc17 0fbf 08b0 b2bf ae0c 6fbf 73af 12be
000002c0: b1b2 1040 beb4 c2be 6331 8bbe dd0b ec3e
000002d0: 876c 283f f804 f53c 4e18 0abe 7898 3a3e
000002e0: 61ff a2be d66c 873f 3198 253c 8572 893f
000002f0: ae3f 51be 2657 ddbe 3cb3 8c3f 25ba 4ebf
00000300: 6fec 123f cd33 a0bf 2324 b4be 0dd0 97bc
00000310: 9414 a33f 6371 86be e862 d33f b0d0 873f
00000320: 200e 0240 c2de 0640 0276 3a3e fa7c b0bf
00000330: 44b3 983e f19f 62bd 589a 093f ebff 8ebf
00000340: b034 9bbe 1720 dc3e ce0b bdbe fb68 0640
00000350: fd6a 7fbf daa3 19bf d102 31bf 3793 d9bf
00000360: e7bb 973f 0eed a9be 52e0 74bd 84c0 06bf
00000370: badb 493f 8f2d fe3e b785 bfbe 14ac 333f
00000380: 1c1a cc3e 1fba 023f f15d ad3e d86d 25bc
00000390: 2e1e acbe 3b46 76c0 50d9 043f 8371 94bf
000003a0: 34e6 bd3d 49b8 60bf ce09 25bf 76af f4bf
000003b0: 2054 0ebf 258e b5bf ce5f 6fbf 71fe 0ebe
000003c0: c523 1040 d3bf c6be cf1c 89be 831d e53e
000003d0: 85f2 253f aeaf 1e3d 2d30 13be 7463 413e
000003e0: b0a2 a4be ada8 873f 47d8 043c 369e 8a3f
000003f0: 089a 57be bc52 dfbe 56f8 8c3f 5e51 50bf
0.5964079 -1.2810593 -0.34942284 0.082356915 1.2471217 -0.2765797 1.6192143 1.0619036
2.0152678 2.1157212 0.1828724 -1.3893642 0.28662202 -0.0491349 0.52370775 -1.0217688
-0.29474074 0.4520476 -0.37509686 1.8250116 -0.96552783 -0.5921681 -0.66569686 -1.718167
1.2166119 -0.2820997 -0.08570102 -0.54338384 0.8081586 0.56404716 -0.37196192 0.6680271
0.41139397 0.50509375 0.35149968 -0.011977566 -0.31934848 -4.0244064 0.49956283 -1.2091777
0.07299751 -0.87065595 -0.60440385 -1.9311806 -0.5650025 -1.3389901 -0.9315736 -0.14732681
2.2791605 -0.36227944 -0.28256226 0.48881352 0.6770618 0.008542176 -0.11737721 0.16649273
-0.31058425 1.0554172 0.013688652 1.0565239 -0.19234517 -0.42442614 1.0988085 -0.7934082
0.5892831 -1.2734534 -0.35040638 0.046827406 1.2567267 -0.2718793 1.6290103 1.0618256
2.0205495 2.113602 0.18292719 -1.384247 0.2908436 -0.051698826 0.5281101 -1.0552671
-0.29678285 0.4447425 -0.37388584 1.9211979 -0.9764551 -0.5943986 -0.67422724 -1.7120874
1.2064439 -0.29846162 -0.07713846 -0.53789294 0.80164367 0.5413484 -0.3729938 0.6794348
0.4073751 0.50704086 0.34737766 -0.010973619 -0.32542896 -3.9666305 0.50567263 -1.1932459
0.07988903 -0.87336737 -0.6177577 -1.9246916 -0.5621093 -1.3656977 -0.93285143 -0.145302
2.2709231 -0.3705427 -0.27769217 0.47553885 0.6678175 0.01896701 -0.12516244 0.17444369
-0.31521025 1.0570122 0.012073742 1.0649287 -0.1985575 -0.42857653 1.0992876 -0.8005384
0.58158255 -1.2602307 -0.35104993 0.011319894 1.2663832 -0.26674244 1.6392035 1.060965
2.02558 2.1099203 0.18308882 -1.3814878 0.29492435 -0.053662825 0.53295016 -1.0817446
-0.29881048 0.43679962 -0.3711702 2.0141532 -0.9874429 -0.5962163 -0.68223566 -1.7045752
1.1956091 -0.31547615 -0.067100756 -0.5315475 0.79422474 0.51746213 -0.3736524 0.6913202
0.4031876 0.50853986 0.34259045 -0.009660345 -0.3311261 -3.9132109 0.51194274 -1.1761019
0.08660125 -0.87530154 -0.63108855 -1.9170496 -0.5589578 -1.395997 -0.9337872 -0.14324741
2.2609065 -0.3802852 -0.27186117 0.461028 0.657906 0.029909596 -0.13485834 0.18222225
-0.31835464 1.0580089 0.010107086 1.0738074 -0.20434448 -0.4323055 1.0992198 -0.80752784
0.5739202 -1.2515808 -0.3518382 -0.018531824 1.2740655 -0.26258382 1.6514559 1.0610561
2.0321121 2.107346 0.18209079 -1.378814 0.2982427 -0.055328313 0.53751135 -1.117185
-0.30313635 0.42993233 -0.3692307 2.1001575 -0.99772626 -0.6001564 -0.6914492 -1.6998051
1.1854218 -0.3318867 -0.05978424 -0.52637506 0.788509 0.49644133 -0.37406704 0.70184445
0.3986367 0.5106525 0.33860734 -0.01009699 -0.33616775 -3.8480365 0.5189409 -1.1597141
0.092724234 -0.87781197 -0.64468086 -1.9116046 -0.55597115 -1.4184004 -0.9350556 -0.13964249
2.2521832 -0.38818225 -0.26779792 0.44749078 0.6482318 0.03874176 -0.14373846 0.18885595
-0.3215537 1.0598351 0.008108205 1.0829532 -0.21054852 -0.4361781 1.1013286 -0.81374156
