src/visualize/sequence_output/LastFM_BSARec/9layer_4iter.npy (npy, 844928 bytes, 1 tensors)

array f4 [66, 50, 64]
1.0487084 -0.91255665 0.94209754 0.17766556 -0.494922 -0.28829962 0.60767424 -1.0208659
0.049932428 -0.5538491 0.20067708 -2.7538936 0.9713892 0.89116645 2.6032472 -1.841696
-0.8494938 0.59764904 -0.4442356 0.63630825 0.67583084 -0.21182498 0.80960864 0.8879004
0.6401102 -0.4591667 0.2899577 0.03488122 -0.51899135 -0.3728558 0.15023884 -0.9247852
-2.358121 1.0740384 0.60521847 -0.20195207 -0.48335674 -3.2119324 0.8098613 -1.1703038
-0.30300212 0.88606006 0.47399867 0.8983833 -0.52787846 -2.4031818 0.46549824 0.51317155
1.0291563 0.36964318 -0.07781997 -0.5672345 0.44427937 0.7615882 0.3628046 -1.3101164
0.42639107 -0.333101 1.0013843 1.2522078 0.607118 0.1576378 0.57823694 -0.14811322
1.0560037 -0.91580623 0.94676495 0.16760102 -0.49962583 -0.29904354 0.61059093 -1.0301158
0.042902194 -0.5565193 0.19950145 -2.7552881 0.97207725 0.89595747 2.6146843 -1.8603381
-0.86070436 0.5975836 -0.45079267 0.6892584 0.6778047 -0.21575168 0.80889475 0.8892956
0.6436855 -0.46287218 0.28993866 0.034870096 -0.5225644 -0.38033813 0.14970458 -0.93157816
-2.366758 1.0758507 0.6114727 -0.20400292 -0.49142686 -3.1376007 0.8140613 -1.1564116
-0.30820668 0.88970476 0.47899914 0.9045056 -0.5305124 -2.4072928 0.4697675 0.513906
1.0248381 0.3673626 -0.082156725 -0.57503587 0.44202456 0.7619238 0.3575201 -1.327634
0.42054617 -0.3393015 1.0023079 1.2538544 0.6025303 0.1578684 0.578844 -0.15281038
1.0629069 -0.91426575 0.9508638 0.15754946 -0.5042519 -0.30958843 0.6128047 -1.0390483
0.036213044 -0.55936825 0.19826819 -2.756476 0.9725598 0.9004042 2.625938 -1.8760935
-0.8719895 0.5974821 -0.45725122 0.74004257 0.67948455 -0.21938667 0.80815285 0.89032924
0.64716655 -0.46623972 0.29055125 0.03486429 -0.52613294 -0.38875496 0.14925739 -0.9384628
-2.3762763 1.0770271 0.6174727 -0.20634063 -0.4992946 -3.064174 0.81797755 -1.142075
-0.31356925 0.89292127 0.48414224 0.91019297 -0.5327508 -2.4124672 0.4740396 0.51464945
1.0206499 0.36474684 -0.08638782 -0.5828618 0.43996724 0.7621727 0.3520671 -1.3446513
0.41433835 -0.34598392 1.0032592 1.2555009 0.5978205 0.15833496 0.57981896 -0.15699115
1.0696528 -0.91781825 0.9551631 0.14810985 -0.50896025 -0.31986704 0.61674607 -1.0479965
0.02931195 -0.5618719 0.19666061 -2.7576754 0.9733275 0.90543544 2.636709 -1.8957381
-0.88246006 0.59766567 -0.46385956 0.7898512 0.68134683 -0.22332092 0.80657053 0.89115226
0.65112954 -0.46940535 0.2898321 0.03474377 -0.5293736 -0.39521167 0.14879987 -0.94483376
-2.3832018 1.07944 0.62369907 -0.2082278 -0.50757766 -2.988355 0.82162803 -1.1277826
-0.31866622 0.89642155 0.48851675 0.9158993 -0.5356207 -2.4150398 0.4781289 0.51546234
1.0158587 0.36198747 -0.090715 -0.5905409 0.43736514 0.7618444 0.34659693 -1.3618579
0.4087239 -0.35110754 1.0036659 1.2569402 0.5934771 0.15839398 0.5803142 -0.1622501
00000000: 143c 863f 509d 69bf 4e2d 713f f6ed 353e
00000010: 6b66 fdbe 029c 93be 8a90 1b3f bcab 82bf
00000020: f285 4c3d 0ec9 0dbf 4b7e 4d3e cb3f 30c0
00000030: f6ac 783f 7c23 643f 9a9b 2640 b2bc ebbf
00000040: 6d78 59bf 87ff 183f d972 e3be 19e5 223f
00000050: 4003 2d3f a6e8 58be 8342 4f3f 714d 633f
00000060: 43de 233f e617 ebbe 5675 943e 9cdf 0e3d
00000070: 9edc 04bf f5e6 bebe 36d8 193e b9be 6cbf
00000080: 74eb 16c0 177a 893f 99ef 1a3f 86cc 4ebe
00000090: 897a f7be 4d90 4dc0 1253 4f3f 84cc 95bf
000000a0: 1823 9bbe d5d4 623f f4af f23e 73fc 653f
000000b0: 0b23 07bf bbcd 19c0 c955 ee3e 365f 033f
000000c0: 65bb 833f df41 bd3e 1460 9fbd 4836 11bf
000000d0: 9678 e33e 72f7 423f 86c1 b93e e5b1 a7bf
000000e0: ee4f da3e 378c aabe 5c2d 803f 5848 a03f
000000f0: 166c 1b3f ce6b 213e 5607 143f feaa 17be
00000100: 212b 873f 4772 6abf 305f 723f 9a9f 2b3e
00000110: f5ce ffbe 3c1c 99be b04f 1c3f d6da 83bf
00000120: 36ba 2f3d 0d78 0ebf 1c4a 4c3e a456 30c0
00000130: 0eda 783f 785d 653f fd56 2740 8f1f eebf
00000140: 1f57 5cbf 3dfb 183f 4cce e6be 3d73 303f
00000150: 9c84 2d3f 02ee 5cbe ba13 4f3f e0a8 633f
00000160: 93c8 243f 95fd ecbe d772 943e f2d3 0e3d
00000170: c8c6 05bf aebb c2be 284c 193e e87b 6ebf
00000180: f778 17c0 7ab5 893f 7a89 1c3f 24e6 50be
00000190: 4d9c fbbe 73ce 48c0 5266 503f 4c05 94bf
000001a0: 44cd 9dbe b1c3 633f 603f f53e ae8d 673f
000001b0: a9cf 07bf 1611 1ac0 5e85 f03e 588f 033f
000001c0: e52d 833f f316 bc3e c941 a8bd 8d35 13bf
000001d0: 0b51 e23e 700d 433f e00c b73e e9ef a9bf
000001e0: d451 d73e edb8 adbe a04b 803f 4d7e a03f
000001f0: 6d3f 1a3f 41a8 213e 1f2f 143f 537a 1cbe
00000200: 550d 883f 520d 6abf cf6b 733f a554 213e
00000210: a716 01bf 6082 9ebe c5e0 1c3f 89ff 84bf
00000220: 2154 143d c232 0fbf d106 4b3e 1a6a 30c0
00000230: aef9 783f e480 663f 5e0f 2840 d523 f0bf
00000240: b43a 5fbf 96f4 183f d51c eabe 6e73 3d3f
00000250: b3f2 2d3f e6a6 60be 1be3 4e3f 9eec 633f
00000260: b5ac 253f f9b6 eebe 22c3 943e dccd 0e3d
00000270: a6b0 06bf e40a c7be eed6 183e 193f 70bf
00000280: e914 18c0 06dc 893f b112 1e3f f54a 53be
00000290: 8ba3 ffbe 6d1b 44c0 fa66 513f 832f 92bf
000002a0: 268c a0be 7d96 643f 7ee1 f73e 6802 693f
000002b0: 5b62 08bf dd65 1ac0 52b5 f23e 11c0 033f
000002c0: a8a4 823f 19c0 ba3e 19ec b0bd 6e36 15bf
000002d0: 6343 e13e c01d 433f 2442 b43e 891d acbf
000002e0: 2824 d43e ce24 b1be cc6a 803f 41b4 a03f
000002f0: c40a 193f 8f22 223e 046f 143f 4ac2 20be
00000300: 62ea 883f 23f6 6abf 9285 743f 1caa 173e
00000310: 384b 02bf 9dc5 a3be 12e3 1d3f c024 86bf
00000320: 9d1f f03c d6d6 0fbf 6661 493e c17d 30c0
00000330: fe2b 793f 9eca 673f d7bf 2840 8ca7 f2bf
00000340: e7e8 61bf 9e00 193f 007f edbe b033 4a3f
00000350: bf6c 2e3f 3dae 64be 687b 4e3f 8e22 643f
00000360: 6db0 263f e655 f0be df64 943e 7c4f 0e3d
00000370: 0785 07bf 2f59 cabe fe5e 183e a0e0 71bf
00000380: 6186 18c0 172b 8a3f beaa 1f3f ab39 55be
00000390: 9cf0 01bf 3541 3fc0 3756 523f 2e5b 90bf
000003a0: 3828 a3be e27b 653f de1e fa3e 6078 6a3f
000003b0: 701e 09bf 0390 1ac0 50cd f43e 57f5 033f
000003c0: a807 823f 6c56 b93e c9c8 b9bd b02d 17bf
000003d0: 53ee df3e 3c08 433f 2775 b13e 5c51 aebf
000003e0: 4244 d13e 5ec4 b3be 2078 803f 6be3 a03f
000003f0: 1dee 173f 0832 223e 798f 143f e424 26be
